crowd_nav/data/output/il_model.pth (torch, 421155 bytes, 20 tensors)

mlp1.0.weight f4 [150, 61]
0	0xbdf0b177	-0.11752599
1	0x3d638e47	0.055555608
2	0xbdb0a0b3	-0.08624401
3	0xbda92db8	-0.08260673
4	0xbe0142a1	-0.12623073
5	0x3d3ad947	0.045617368
6	0x3df9f8df	0.122056715
7	0xbd91eb58	-0.071249664
8	0xbd4dffb4	-0.050292686
9	0xbc298d9c	-0.010348704
10	0xbdeb717d	-0.114962555
11	0xbda81975	-0.082079805
12	0xbd50974e	-0.050925545
13	0xbd44a07f	-0.048004624
14	0x3df32724	0.118727
15	0x3dc23b69	0.09483988
16	0xbd368dff	-0.04456901
17	0xbd2722f1	-0.040804807
18	0xbd43527e	-0.047686093
19	0xbdf16fc4	-0.11788896
20	0xbd7f27b1	-0.062293712
21	0xbd95bd8a	-0.07311542
22	0x3daffe9f	0.08593487
23	0x3d30bd6f	0.043149408
24	0xbda7c2c8	-0.081914485
25	0xbd2b5aa1	-0.041834477
26	0x3d0d4734	0.034491733
27	0x3d8af6c3	0.06785347
28	0xbd84c3ef	-0.06482684
29	0xbd8fe8c5	-0.07026819
30	0xbdeb6964	-0.11494711
31	0x3dc2a5b2	0.0950426
32	0x3d7da651	0.06192619
33	0x3d26775a	0.040641166
34	0x3df669ed	0.120319225
35	0x3d55b614	0.052175596
36	0x3da0dddc	0.07854816
37	0xbca5f6f4	-0.020259358
38	0xbc5e295c	-0.0135596655
39	0x3d43cf89	0.047805343
40	0x3c2106a4	0.009828243
41	0x3df2481a	0.118301585
42	0x3de73750	0.11289847
43	0x3e0046e1	0.12527038
44	0x3dfdf653	0.12400498
45	0xbdc56a95	-0.096394695
46	0xbe01af6d	-0.12664576
47	0x3dde853a	0.10865255
48	0xbdac172e	-0.08402859
49	0xbd1987db	-0.037483077
50	0xbe018ebc	-0.12652105
51	0xbda18f6a	-0.07888682
52	0xbdb5f902	-0.08885385
53	0xbde744d3	-0.11292424
54	0xbde3c0cc	-0.111207575
55	0xbd90621c	-0.07049963
56	0xbc4f6ac2	-0.01265973
57	0x3dedc159	0.11609144
58	0xbd4cad82	-0.049970157
59	0xbe013e5b	-0.12621443
60	0x3c6ffdaf	0.014647885
61	0xbd990491	-0.07471574
62	0x3d7c0a10	0.061533034
63	0xbdb8adda	-0.090175346
64	0x3c3a5dc9	0.011374899
65	0x3c566bc7	0.01308722
66	0x3de97f19	0.11401195
67	0xbd878409	-0.066169806
68	0xbd572059	-0.052521084
69	0x3b23b7c3	0.0024981357
70	0x3d95f0a3	0.073212884
71	0xbca1c861	-0.019748868
72	0x3df11927	0.117723756
73	0xbd7b8b58	-0.061412185
74	0x3ddd4cd3	0.10805669
75	0x3d9a0ab2	0.07521571
76	0x3dbfffbd	0.0937495
77	0xbd3baec2	-0.04582096
78	0xbd68fe6c	-0.05688326
79	0x3d412e57	0.047163334
80	0xbce12bf0	-0.027486771
81	0x3bfe87b4	0.007767642
82	0x3c8d45f3	0.017245268
83	0x3d9e42b2	0.07727565
84	0xbdf16dde	-0.11788534
85	0xbdf308d4	-0.11866918
86	0x3c73e860	0.0148869455
87	0x3d17a5a9	0.03702322
88	0x3df0eac5	0.11763529
89	0xbd86b526	-0.0657752
90	0xbd65eacb	-0.05613212
91	0x3c31a9e2	0.010843726
92	0x3a191904	0.00058402144
93	0x3c6d9e24	0.014503036
94	0x3db3fdec	0.08788666
95	0xbbd842b7	-0.00659975
96	0xbae09efc	-0.0017137225
97	0x3dda582c	0.10661349
98	0xbd45d4fc	-0.04829882
99	0x3df2c8b1	0.11854685
100	0x3c892d95	0.016745368
101	0xbd357a7f	-0.044306275
102	0xbdd61fc1	-0.10455275
103	0xbd0d23bc	-0.034457907
104	0xbd923c99	-0.07140464
105	0xbdf9e623	-0.12202098
106	0xbc1026ee	-0.008798344
107	0xbd318b51	-0.043345753
108	0x3b563522	0.0032685478
109	0x3dd698f8	0.10478395
110	0x3d055367	0.03255024
111	0x3db4a068	0.088196576
112	0x3dfcb004	0.1233826
113	0xbd6c6c7b	-0.057720643
114	0xbc57f4db	-0.013180937
115	0xbd870a02	-0.06593706
116	0x3ccd95d9	0.025095867
117	0xbd7b7fcd	-0.061401177
118	0x3dbfe084	0.09368995
119	0x3ccc676a	0.024951655
120	0x3d9eb49d	0.07749293
121	0xbdcbf885	-0.09959511
122	0x3d5edb65	0.05440845
123	0x3beb39b2	0.0071785087
124	0xbb6dcb20	-0.0036284402
125	0x3e011810	0.12606835
126	0x3c202270	0.009773836
127	0x3d9eeaa7	0.077596
128	0x3e0ec07f	0.13940619
129	0x3d2ecb14	0.04267414
130	0xbdf2f103	-0.118623756
131	0x3d47ea11	0.048807207
132	0xbdaf41e1	-0.08557487
133	0x3ddc748e	0.107644185
134	0x3d2ef15e	0.042710654
135	0x3db92b82	0.090415016
136	0xbde993be	-0.11405133
137	0xbd11c8e6	-0.035591982
138	0xbb8206b5	-0.0039680847
139	0xbd167dfd	-0.036741246
140	0xbd83902b	-0.06423982
141	0x3d51410c	0.051087424
142	0x3dfd859c	0.123789996
143	0xbdc4ebab	-0.096152626
144	0x3c176b43	0.009241882
145	0xbcd583d6	-0.02606384
146	0xbc13b737	-0.00901585
147	0xbb236f48	-0.0024938155
148	0x3d875acf	0.06609117
149	0x39812106	0.00024629402
150	0x3d5a85de	0.053350322
151	0xbdac8dc1	-0.08425475
152	0xbd3697b2	-0.04457826
153	0x3bf1ce24	0.00737931
154	0x3c323b92	0.0108784605
155	0x3dfffca8	0.12499362
156	0xbd014402	-0.031558998
157	0x3c8dde9b	0.01731806
158	0x3da6b66b	0.08140262
159	0x3d717c07	0.058956172
160	0xbd80264a	-0.06257303
161	0xbd499793	-0.049216818
162	0x3dcab6bd	0.09898136
163	0xbdc7a524	-0.09748295
164	0xbdc8a7a9	-0.09797604
165	0x3d910521	0.070810564
166	0xbd10b35b	-0.035327297
167	0xbdf166e9	-0.11787207
168	0xbdb31f5d	-0.087462164
169	0xbc828813	-0.015934026
170	0x3d07587d	0.033043373
171	0x3d9340b9	0.07190079
172	0xbd9f530e	-0.07779513
173	0x3ddd0202	0.107913986
174	0xbd488be2	-0.048961528
175	0x3b720fef	0.0036935767
176	0xbd985a42	-0.0743909
177	0xbdec43db	-0.1153638
178	0x3c395322	0.011311324
179	0x3ddf4a12	0.109028
180	0xbda1637d	-0.07880304
181	0xbd701eb6	-0.05862304
182	0x3d5931ec	0.053026125
183	0xbd880c0d	-0.066429235
184	0xbd79ca32	-0.060983844
185	0x3d6e7b78	0.058223218
186	0x3dade2eb	0.08490547
187	0xbda2351b	-0.07920285
188	0xbdb6c0ea	-0.08923514
189	0xbd22c589	-0.039739165
190	0x3ded1aa6	0.115773484
191	0xbdd80dfb	-0.105495416
192	0xbdd505e3	-0.104015134
193	0xb814fc8b	-3.552115e-05
194	0xbd39ee0c	-0.045393035
195	0xbdbccf08	-0.092191756
196	0x3d7a007a	0.06103561
197	0x3d94c45c	0.07264015
198	0x3d18abab	0.03727309
199	0x3dafeca2	0.08590056
200	0xbce40454	-0.027834095
201	0xbde1076b	-0.10987743
202	0xbd3cdbe8	-0.046108156
203	0xbda2423e	-0.07922791
204	0x3d795ba5	0.060878415
205	0xbd82f0c1	-0.063935764
206	0xbca18916	-0.019718688
207	0xbbe1a207	-0.0068857702
208	0xbd386685	-0.045019645
209	0x3dc0d5c6	0.09415774
210	0x3d13b798	0.03606376
211	0xbd86181f	-0.065475695
212	0x3d988bcd	0.0744854
213	0xbd97cb27	-0.07411795
214	0xbc989b16	-0.018628638
215	0x3cc8b36d	0.02449962
216	0xbdbe72c5	-0.09299234
217	0xbdad076d	-0.08448682
218	0x3d5e2986	0.05423882
219	0xbd87c838	-0.066299856
220	0x3dbf1c52	0.093315735
221	0x3d0a06d0	0.033697903
222	0xbdb9836d	-0.090582706
223	0xbd27cb7c	-0.040965542
224	0x3d9dff50	0.077147126
225	0xbcd30892	-0.025760923
226	0x3d953260	0.07284999
227	0xbd870633	-0.06592979
228	0xbdde4121	-0.10852266
229	0xbd8467b9	-0.06465096
230	0x3de74a7d	0.112935044
231	0x3d09c316	0.033633314
232	0xbd5fce32	-0.054640003
233	0x3dddbc2f	0.10826909
234	0xbd8d8036	-0.0690922
235	0xbdbde844	-0.09272817
236	0xbce14a8b	-0.027501365
237	0xbd751459	-0.05983386
238	0xbd0b8f21	-0.034072045
239	0xbdc328fa	-0.095293
240	0xbcde35e6	-0.02712531
241	0x3ddbda4f	0.107349984
242	0x3ded4518	0.11585444
243	0x3e0047eb	0.12527435
244	0xbda5156e	-0.08060728
245	0xbdb52e57	-0.08846729
246	0x3dc345c0	0.09534788
247	0x3d645b6f	0.05575126
248	0xbcfc2713	-0.03078035
249	0xbca99bec	-0.020704232
250	0xbd50f7cb	-0.051017564
251	0x3da82efe	0.08212088
252	0xbdefb651	-0.11704696
253	0x3a8845ba	0.0010396757
254	0xbd87263b	-0.06599089
255	0x3dcab308	0.09897429

mlp1.0.bias f4 [150]
0	0x3dd5ad05	0.104333915
1	0xbb2a6376	-0.0025999225
2	0x3dafd90a	0.08586319
3	0xbd88fe20	-0.066890955
4	0xbd2936fa	-0.041312195
5	0x3d66cdad	0.05634849
6	0xbdb0af81	-0.08627225
7	0x3d6d28e6	0.057900332
8	0xbdd0381f	-0.10166954
9	0x3d2606c7	0.040533807
10	0xbbc727b3	-0.0060777306
11	0x3d0702a7	0.032961514
12	0x3d526057	0.051361408
13	0x3d760000	0.060058594
14	0xbd8d0ee4	-0.06887606
15	0x3df1de88	0.118100226
16	0xbd66ba74	-0.05633016
17	0xbc264f52	-0.010150747
18	0x3d8243a9	0.063605614
19	0xbc3345e6	-0.010941958
20	0xbdac106d	-0.084015705
21	0xbd5e0292	-0.05420167
22	0xbda0a435	-0.0784382
23	0x3c9124d3	0.017717754
24	0x3d225486	0.03963139
25	0xbdb49bda	-0.08818789
26	0x3d8f9e35	0.070125975
27	0xbdd832c1	-0.105565555
28	0x3b873d8d	0.0041272105
29	0xbdc5ad1f	-0.09652161
30	0x3de659b1	0.11247576
31	0xbda98d18	-0.082788646
32	0x3de85926	0.11345129
33	0xbde7f864	-0.113266736
34	0xbdf048ec	-0.11732659
35	0x3c99037e	0.018678423
36	0xbd94f917	-0.072740726
37	0x3df23574	0.118266016
38	0x3d95ae17	0.07308596
39	0xbddb3e65	-0.1070526
40	0xbdbe8de6	-0.09304409
41	0x3d915948	0.07097107
42	0x3e02fd5d	0.12791963
43	0x3d9c79bb	0.07640406
44	0xbdd228eb	-0.10261711
45	0xbdad6339	-0.08466191
46	0x3db3c555	0.087778725
47	0x3ccff688	0.02538611
48	0x3cee6c73	0.029104447
49	0x3db80ae2	0.08986451
50	0xbdfdcd5b	-0.12392684
51	0xbd2f00a8	-0.042725235
52	0x3abdd175	0.0014481979
53	0xbddf018b	-0.10888966
54	0xbde709e9	-0.11281187
55	0x3d9dabdf	0.076987974
56	0xbd6656d0	-0.056235135
57	0x3b29883a	0.002586855
58	0x3dd93370	0.10605514
59	0x3da890dd	0.082307555
60	0xbdb7c688	-0.08973414
61	0xbdd09438	-0.101845205
62	0xbd95e9ad	-0.07319961
63	0xbd8e1ec3	-0.06939461
64	0x3dfe1a64	0.12407377
65	0xbd97a1fa	-0.074039415
66	0xbdec819e	-0.1154816
67	0xbdb9f15b	-0.09079238
68	0xbcab0a1c	-0.020878844
69	0x3dc630a4	0.09677246
70	0x3d9750d8	0.073884666
71	0x3dd7a594	0.105296284
72	0x3c32dbe3	0.010916683
73	0xbdec6171	-0.11542023
74	0xbdba9a5f	-0.09111475
75	0xbc7eb1e1	-0.015545339
76	0xbd1e08c3	-0.038582575
77	0xbd96b347	-0.07358413
78	0x3dcc319d	0.099704005
79	0x3d269e05	0.040678043
80	0xbd4eed3b	-0.05051921
81	0xbdd65c36	-0.104668066
82	0x3dea30fb	0.114351235
83	0xbcda38bd	-0.026638383
84	0xbd2a261d	-0.041540254
85	0x3c849a79	0.01618694
86	0x3c651dd0	0.013984159
87	0x3daa7913	0.08323874
88	0x3d763e65	0.060118098
89	0x3d6969d0	0.056985676
90	0x3c825690	0.015910417
91	0xbdd82095	-0.105530895
92	0x3c9f0c71	0.019415112
93	0x3db2443e	0.087044224
94	0xbd4178e9	-0.04723445
95	0x3dbca650	0.09211409
96	0xbdf9077b	-0.1215963
97	0xbd120c5d	-0.03565632
98	0x3daf32b3	0.08554592
99	0x3d930a73	0.071797274
100	0x3d596b0c	0.053080603
101	0xbdf962d0	-0.1217705
102	0x3c037f9f	0.008026033
103	0x3c8e2d66	0.017355632
104	0x3b6f6291	0.0036527256
105	0x3dab5521	0.083658464
106	0x3decfa6c	0.11571202
107	0x3d198d94	0.037488535
108	0xbca5ef32	-0.020255659
109	0xbd99010b	-0.07470902
110	0xbc1167fb	-0.0088748885
111	0x3caa9a72	0.020825598
112	0x3d773e9e	0.06036245
113	0x3d97d5be	0.07413815
114	0x3bc2c609	0.005944018
115	0xbcfad1b5	-0.030617574
116	0xbd6d4fc6	-0.057937406
117	0xbdd80316	-0.105474636
118	0xbe001b59	-0.12510432
119	0x3d17bc5d	0.03704487
120	0xbd07b621	-0.033132676
121	0x3daabbd3	0.08336606
122	0x3d6e118e	0.05812221
123	0xbd7608b3	-0.06006689
124	0x3d45c4b0	0.04828328
125	0xbdf9377a	-0.121687844
126	0x3d75d01c	0.06001292
127	0xbc4f38e7	-0.012647844
128	0x3db7a3d6	0.08966796
129	0x3d6a2b71	0.057170335
130	0xbd8e5fac	-0.06951842
131	0xbc58a593	-0.01322307
132	0xbdb22dc6	-0.08700137
133	0xbd684de7	-0.05671492
134	0xbddbf9f3	-0.107410334
135	0x3d7a754b	0.061147016
136	0xbcf92a70	-0.030415744
137	0xbd63b518	-0.055592626
138	0xbdfd5d39	-0.123712964
139	0xbdbad661	-0.09122921
140	0x3d844e4d	0.06460247
141	0xbd6e42ea	-0.058169283
142	0xbcf20b6b	-0.02954646
143	0xbd549b1d	-0.05190574
144	0x3ce2847a	0.02765106
145	0x3e000410	0.1250155
146	0x3d7fc129	0.06244007
147	0xbde6154a	-0.11234529
148	0x3d33a0b2	0.043854423
149	0xbd8b194c	-0.06791934

mlp1.2.weight f4 [100, 150]
0	0xbd9c0d04	-0.0761967
1	0xbc312dcd	-0.010814142
2	0xbd0cfba0	-0.034419656
3	0xbc603db4	-0.013686586
4	0x3d7f346b	0.06230585
5	0x3cceeeff	0.025260447
6	0x3bd9334c	0.0066284295
7	0xbcbe1e8d	-0.023207927
8	0x3d9ce5e5	0.076610364
9	0xbc81d4ac	-0.01584848
10	0xbd2af951	-0.041741673
11	0x3d17697c	0.036965832
12	0x3d313920	0.04326737
13	0x3d883121	0.066499956
14	0x3d8045a6	0.062632844
15	0x3c76b4db	0.015057768
16	0xbd936997	-0.07197874
17	0xbd3ef255	-0.046617825
18	0x3da065be	0.07831906
19	0xbd229110	-0.039689124
20	0xbc9a0cbb	-0.018804898
21	0xbd892ff6	-0.06698601
22	0xbd53eda7	-0.051740315
23	0x3c78a212	0.015175359
24	0x3d86983d	0.06572006
25	0x3d8d6a67	0.0690506
26	0xbd02a18a	-0.031892337
27	0x3d727d19	0.059201334
28	0xbc5e7c73	-0.013579476
29	0x3d56f261	0.052477244
30	0xba8b167f	-0.0010611563
31	0xbd9f0f1b	-0.07766553
32	0x3d96a4ad	0.07355628
33	0xbd10c21d	-0.03534137
34	0xbd195775	-0.03743692
35	0x3d6308ad	0.055428196
36	0xbc480496	-0.012208125
37	0xbc68580f	-0.014181151
38	0x3c471c3f	0.0121527305
39	0xbce5c34c	-0.028047226
40	0xbb422e66	-0.0029629706
41	0x3d0dd4e3	0.034626853
42	0x3d3b232c	0.04568784
43	0x3d09df3a	0.03366015
44	0xbd47bfb1	-0.048766796
45	0xb9d8edaa	-0.00041375804
46	0xbd11ef7d	-0.035628784
47	0xbd319575	-0.043355424
48	0xbc01ee69	-0.007930377
49	0xbd9924c3	-0.07477715
50	0xbd41bdb2	-0.04730005
51	0xbd4effee	-0.050537042
52	0xbce4de46	-0.02793802
53	0x3a69ff0e	0.0008926251
54	0xbd794107	-0.06085303
55	0xbd954f68	-0.07290536
56	0x3c8a5128	0.016884401
57	0xbc9e5516	-0.019327682
58	0x3d98288e	0.0742961
59	0x3d0325b7	0.03201839
60	0x3d1b5371	0.037921373
61	0xbcc27cb7	-0.02374111
62	0x3d126472	0.035740323
63	0xbd2bc729	-0.04193798
64	0x3d4ef7a3	0.050529134
65	0xbd8c64f1	-0.068551905
66	0xbce1bf48	-0.02755703
67	0x3d00abc2	0.0314138
68	0x3c521d87	0.012824423
69	0xbd999c09	-0.075004645
70	0xbd80f649	-0.06296975
71	0xbd14017b	-0.036134224
72	0x3a3b6ea8	0.0007149973
73	0xbc280568	-0.010255195
74	0x3d0083df	0.031375762
75	0xbd873d2d	-0.06603465
76	0x3d0fbf3e	0.035094492
77	0x3d34a1bd	0.04409956
78	0x3d9a9ff1	0.07550038
79	0xbd35df13	-0.044402193
80	0xbd2aa746	-0.04166343
81	0x3d9eb622	0.07749583
82	0x3c967ab0	0.018369049
83	0x3d5b99a5	0.053613324
84	0xbc923d59	-0.017851518
85	0xbbc5c151	-0.006035008
86	0x3ce76334	0.028245546
87	0xbd9130f3	-0.070894144
88	0x3aa128e2	0.0012295509
89	0x3ba80e40	0.005128652
90	0x3d930e49	0.07180459
91	0xbd85b397	-0.06528395
92	0x3d84997c	0.06474587
93	0xbb70865b	-0.0036701176
94	0xbd467a17	-0.048456278
95	0x3c014c79	0.007891768
96	0x3b48e9fa	0.003065704
97	0xbd206476	-0.039158307
98	0x3d2a9111	0.041642252
99	0x3d4656d4	0.04842265
100	0xbd8fe1ea	-0.070255116
101	0x3c0c92a4	0.008579884
102	0x3d1ece61	0.038771037
103	0xbbe1fe04	-0.006896736
104	0xbb74fa82	-0.003738076
105	0xbd6e782e	-0.05822008
106	0xbc0acc5b	-0.008471574
107	0xbd9d0c6b	-0.07668384
108	0xbd99fabf	-0.07518529
109	0x3c214db0	0.009845182
110	0x3d78cc5e	0.060741775
111	0x3d8c5dc1	0.0685382
112	0xbd173bd3	-0.036922287
113	0xbb8157a3	-0.0039472147
114	0xbd6fa488	-0.05850652
115	0xbda659e8	-0.08122617
116	0x3d6d5063	0.05793799
117	0x3cbb669f	0.022876082
118	0x3c375f2c	0.011192124
119	0x3d2d1cb9	0.04226372
120	0xbc4949e2	-0.012285681
121	0xbca822d9	-0.02052443
122	0x3d9a683f	0.075394146
123	0x3d25a25d	0.040438045
124	0xbc097913	-0.008390683
125	0x3d8ddd72	0.06927003
126	0xbd39d10e	-0.045365386
127	0xbd9ca97c	-0.07649514
128	0x3d04aefd	0.032393444
129	0x3c68ad00	0.014201403
130	0xbd8787f0	-0.06617725
131	0x3cf22eb0	0.029563278
132	0xbcdc2a33	-0.02687559
133	0xbd9f6ee3	-0.07784822
134	0xbd89c875	-0.06727687
135	0x3d61cb46	0.055125497
136	0xbc4d703b	-0.012538965
137	0xbc9abab9	-0.018887864
138	0xbd07ea45	-0.0331824
139	0xbd8e7b12	-0.069570675
140	0xbcc56888	-0.024097696
141	0xbc73643b	-0.01485544
142	0xbda143c9	-0.07874257
143	0x3d309e76	0.04311987
144	0x3d5104a8	0.05102983
145	0x3d539616	0.051656805
146	0x3ba68712	0.0050820196
147	0x3d40bd61	0.047055606
148	0x3d8c8c67	0.06862717
149	0x3d1e43cc	0.038638875
150	0xbd938be5	-0.07204417
151	0x3c0f2a4a	0.00873811
152	0x3d9bd46f	0.07608878
153	0x3d2a15dd	0.041524757
154	0xbd0533bf	-0.032520052
155	0x3c9222a8	0.017838791
156	0x3d99223b	0.07477232
157	0x3d7f2d8b	0.062299293
158	0x3c01b6ea	0.007917145
159	0x3d7a5a80	0.061121464
160	0xbd12165a	-0.035665847
161	0x3d9e930b	0.0774289
162	0xbd552370	-0.05203575
163	0x3c915303	0.017739778
164	0x3d9ae393	0.075629376
165	0x3d8f91d9	0.0701024
166	0x3d60a03d	0.054840315
167	0x3d813a1f	0.06309914
168	0xbd4f44f1	-0.050602857
169	0xbd1000bc	-0.03515695
170	0x3d6047bf	0.054755922
171	0x3bbc4f04	0.005746724
172	0x3d208562	0.039189704
173	0xbd7826cd	-0.06058388
174	0x3d5ba80b	0.053627055
175	0x3d631aa8	0.055445343
176	0x3d64aae9	0.055827055
177	0xbd6cb872	-0.05779309
178	0xbcb344d8	-0.021883413
179	0x3d9b5b90	0.075858235
180	0xbcff1b89	-0.03114106
181	0xbd2affaa	-0.041747727
182	0xbd1d368a	-0.03838209
183	0x3ca840e5	0.020538757
184	0x3d567ef5	0.05236717
185	0x3ccf3b2a	0.025296766
186	0xbd492908	-0.049111396
187	0x3d492657	0.04910883
188	0x3d7ae0d9	0.061249588
189	0x3d803a1a	0.06261082
190	0x3d3a6f88	0.04551652
191	0x3ba8f6ad	0.005156359
192	0x3d521cbc	0.051296934
193	0xbc513ebf	-0.0127713075
194	0xbd9d6434	-0.07685128
195	0x3c56bb79	0.01310622
196	0x3d5f8989	0.054574523
197	0x3d877358	0.06613797
198	0x3d021f80	0.031768322
199	0x3d93c5fc	0.07215497
200	0xbcb61bf4	-0.022230126
201	0xbc70c191	-0.014694587
202	0x3c39eb68	0.011347629
203	0x3d1f171b	0.038840394
204	0x3cac2b69	0.021016793
205	0xbc16a344	-0.009194199
206	0xbbbbafc5	-0.0057277405
207	0x3c42b0cd	0.011882973
208	0xbd576622	-0.052587636
209	0xbc00bdc3	-0.007857743
210	0xbd48351f	-0.048878785
211	0xbd9f74a6	-0.07785921
212	0x3c8e2e7c	0.01735615
213	0x3bd8d007	0.0066165957
214	0x3d9af744	0.075666934
215	0x3d952572	0.07282533
216	0xbda20018	-0.07910174
217	0x3a5bde37	0.00083872996
218	0x3d99fa6d	0.07518468
219	0x3d87aaeb	0.06624397
220	0x3d83b190	0.06430352
221	0xbd4fcd6c	-0.050733015
222	0x3cef0675	0.029177884
223	0x3c590edb	0.013248171
224	0xbd7adcf5	-0.061245877
225	0x3d986d2a	0.074426964
226	0x3d06875b	0.03284393
227	0xbca17ed1	-0.019713791
228	0x3d383255	0.044969875
229	0xbd818580	-0.06324291
230	0x3d5de8dc	0.05417715
231	0xbd479288	-0.048723727
232	0x3d8579ec	0.065173954
233	0x3d87c28d	0.066289045
234	0xbd659d14	-0.056058004
235	0xbbefb6ea	-0.007315506
236	0x3cbc2f14	0.022971667
237	0xbb93528f	-0.0044959257
238	0x3d8f5b67	0.069998555
239	0xbd87d97e	-0.0663328
240	0x3cd99380	0.026559591
241	0xbd8eea69	-0.06978304
242	0x3c8f9f66	0.017532062
243	0x3ce50fc1	0.027961614
244	0xbd7d8c46	-0.061901353
245	0xbda56c3a	-0.08077283
246	0x3d0320a7	0.03201356
247	0x3c9ceea0	0.019156754
248	0x3ba4fb49	0.0050348383
249	0x3d8277c1	0.063704975
250	0xbba67e16	-0.0050809486
251	0x3d4177b9	0.047233317
252	0xbc8f11c3	-0.017464524
253	0x3ce085c6	0.027407538
254	0xbdb2adc3	-0.08724549
255	0xbc94592a	-0.018108923

mlp1.2.bias f4 [100]
0	0xbc1ffb27	-0.009764469
1	0xbbf1f57d	-0.007384001
2	0xbd5120f1	-0.051056806
3	0xbcdeeb8c	-0.027211927
4	0x3d9260d5	0.071473755
5	0xbd4c8df7	-0.049940076
6	0x3da01aca	0.078176096
7	0xbd251651	-0.040304486
8	0x3d9f14c9	0.07767636
9	0x3ccf331e	0.02529293
10	0x3d986799	0.07441635
11	0x3d999e42	0.075008884
12	0xbd121732	-0.035666652
13	0x3d29ee17	0.041486826
14	0x3da8b5cb	0.08237799
15	0xbd4fd640	-0.050741434
16	0x3d9a0cbb	0.075219594
17	0x3d3e491f	0.046456452
18	0xb731cf41	-1.0598277e-05
19	0x3d82e401	0.063911445
20	0x3c6511cb	0.013981293
21	0x3d95bf1e	0.07311843
22	0xbd7201b1	-0.059083644
23	0xba525c75	-0.00080246414
24	0xbd848ba3	-0.06471946
25	0x3d9d6659	0.07685537
26	0xbcd4b1fa	-0.025963772
27	0xbca87ae7	-0.020566417
28	0x3c08029b	0.008301402
29	0x3d51cee5	0.0512227
30	0xbc69a0ca	-0.0142595265
31	0xbd884104	-0.06653026
32	0x3d8de3e7	0.069282345
33	0x3c327853	0.010892945
34	0x3d4c0f96	0.04981955
35	0x3d97453c	0.07386252
36	0x3baf11d7	0.005342703
37	0x3cd6bef6	0.026214104
38	0xbbe40454	-0.0069585238
39	0x3d05c06b	0.032654207
40	0x3d52a9d2	0.051431485
41	0x3d1c43e6	0.03815069
42	0x3d7b723f	0.06138825
43	0x3d8f79e2	0.07005669
44	0x3af74080	0.0018863827
45	0x3d82f2ff	0.06394004
46	0x3d5ee356	0.054416023
47	0x3bea5e39	0.0071523455
48	0x3ce74fe4	0.028236337
49	0xbd920a75	-0.07130901
50	0xb93a0e91	-0.00017743769
51	0x3d89bbbe	0.06725262
52	0x3da87155	0.08224741
53	0xbd479d7e	-0.04873418
54	0xbc4694b0	-0.012120411
55	0xbb3e83b1	-0.0029070193
56	0xbae1f2d9	-0.0017238512
57	0x3caf6d5a	0.021414448
58	0x3c1ee7a0	0.009698778
59	0xbcb9140c	-0.022592567
60	0xbd447f73	-0.047973108
61	0x3d1c7357	0.038195934
62	0xbd79f681	-0.0610261
63	0x3cf37c7c	0.029722445
64	0x3c48b775	0.012250771
65	0x3da32948	0.07966858
66	0xbc38da1a	-0.011282468
67	0xbc19400e	-0.009353651
68	0xbd4b498a	-0.04963068
69	0xbd71f0d4	-0.059067562
70	0xbd6400a9	-0.055664692
71	0x3d839674	0.06425181
72	0x3c7054f7	0.014668695
73	0x3baffb99	0.005370569
74	0x3c2b324a	0.010449002
75	0x3cab7a4e	0.020932343
76	0x3c411922	0.011785777
77	0xbd7ae881	-0.06125689
78	0x3b85fa87	0.004088703
79	0xbd8d9772	-0.069136515
80	0xbd0edb97	-0.034877386
81	0xbd5d40b8	-0.0540168
82	0x3c9826e0	0.018573225
83	0xbd1e169e	-0.03859579
84	0x3c6cfe7d	0.014464972
85	0xbd8254b9	-0.06363816
86	0x3d2b0dc8	0.04176119
87	0x3d2756fe	0.040854447
88	0xbd9ff2f0	-0.078100085
89	0xbd0c4d3f	-0.034253355
90	0x3b2e01f0	0.0026551448
91	0x3d584a3e	0.052805178
92	0xbce48deb	-0.027899703
93	0x3d1832a2	0.037157662
94	0x3b3d3acc	0.0028874157
95	0x3d024e32	0.031812854
96	0xbd802d2c	-0.06258616
97	0x3d570ab5	0.052500445
98	0xbd9e1bc3	-0.07720139
99	0xbb59c4fd	-0.0033228986

mlp2.0.weight f4 [100, 100]
0	0xbdc6f2dc	-0.097142905
1	0xbd0398f8	-0.032128304
2	0x3d9c17ee	0.07621752
3	0x3dadd8f1	0.08488644
4	0x3d31dec6	0.043425344
5	0x3d4ac9a7	0.049508717
6	0x3d4fca08	0.05072978
7	0xbd242825	-0.040077347
8	0xbdbd6103	-0.09247019
9	0x3c5a948a	0.013341079
10	0x3cdbe8f1	0.026844474
11	0x3d5164a4	0.05112137
12	0x3dabde76	0.083920404
13	0xbd78b784	-0.06072189
14	0xbdbc9659	-0.09208364
15	0xbccc6a2c	-0.02495297
16	0x3da2fd8f	0.07958519
17	0xbdc649be	-0.09682034
18	0x3d01b89f	0.03167021
19	0xbd0dd8db	-0.034630638
20	0xbd2ae6be	-0.04172396
21	0xbccbea6f	-0.02489206
22	0x3d65c7b1	0.056098644
23	0xbc347909	-0.011015185
24	0xbcec4c46	-0.028844964
25	0x3c9c51a8	0.019081905
26	0xbd4c30dc	-0.049851283
27	0x3d60a933	0.05484886
28	0x3dc4fccf	0.09618532
29	0xbd30ce8f	-0.04316574
30	0xbd476bf7	-0.048686948
31	0xbd6525b0	-0.055944145
32	0xbd408186	-0.046998523
33	0x3da8d477	0.082436495
34	0xbd979091	-0.07400621
35	0xbcba08da	-0.022709299
36	0x3c526d8a	0.012843499
37	0x3d829f8b	0.06378087
38	0xbc3c59f5	-0.011496057
39	0xbdad780d	-0.084701635
40	0x3d65d8b2	0.05611486
41	0xbd95f50b	-0.07322129
42	0x3bd28ecd	0.0064257146
43	0x3d5a7fbc	0.053344473
44	0x3dca8d2b	0.09890207
45	0xbcacd07a	-0.021095503
46	0x3c4892f8	0.012242071
47	0xbd319dd4	-0.043363407
48	0xbd050dc2	-0.032483824
49	0xbcd62a9c	-0.026143365
50	0xbdb2ab75	-0.08724109
51	0xbd764288	-0.060122043
52	0x3d9a65b1	0.07538927
53	0xbdb8096d	-0.08986173
54	0x3d912656	0.0708739
55	0xbd74ed53	-0.059796643
56	0xbd496d3a	-0.049176432
57	0x3d132d36	0.03593179
58	0xbd9ed6cb	-0.07755812
59	0x3dc4a36c	0.09601483
60	0x3db989c9	0.090594836
61	0xbdc9fe69	-0.09862978
62	0xbd17ec7a	-0.037090756
63	0x3bfd885c	0.0077372026
64	0x3ccf70a9	0.025322275
65	0xbc66a589	-0.014077553
66	0x3a4d5ccc	0.0007833957
67	0xbd83952e	-0.06424938
68	0x3b8a685f	0.004223868
69	0x3c5ce9d9	0.013483488
70	0x3d433c3c	0.047664866
71	0x3d86d65c	0.065838546
72	0xbd57358e	-0.052541308
73	0x3dae3816	0.08506791
74	0x3bb5e6e4	0.005551206
75	0xbd86355f	-0.065531485
76	0xbcb0a9e2	-0.021565381
77	0x3d1eab18	0.038737386
78	0xbd275ef0	-0.040862024
79	0x3db78c19	0.089622684
80	0x3dc98ac6	0.09840922
81	0x3cc0f9d3	0.023556625
82	0x3cfd3dcf	0.030913262
83	0x3d5305ff	0.05151939
84	0xbdc590f9	-0.09646792
85	0x3cb51b39	0.022107707
86	0x3d2e3c8a	0.042538203
87	0x3c1a71ba	0.009426529
88	0x3dbbaceb	0.09163841
89	0xbdb2c17d	-0.08728311
90	0xbd849fd0	-0.06475794
91	0xbb90e72a	-0.004422088
92	0x3d9a55e2	0.07535912
93	0xbd5d25b3	-0.05399103
94	0x3da8559f	0.08219456
95	0x3d8a778b	0.06761082
96	0x3c77f710	0.015134588
97	0x3d86e6d4	0.06586996
98	0xbd5b5a65	-0.053553004
99	0xbcf45949	-0.02982773
100	0xbdb1e914	-0.08687034
101	0x3c554ccf	0.013018801
102	0xbd607307	-0.0547972
103	0x3cb87a77	0.022519333
104	0xbcfc638c	-0.030809186
105	0x3da2c30e	0.0794736
106	0xbdc426ff	-0.095777504
107	0x3da364a5	0.07978181
108	0x3d09852d	0.033574272
109	0xbdb2edc7	-0.08736759
110	0xbda2dcc6	-0.079522654
111	0x3db3a420	0.08771539
112	0x3c43cb38	0.011950307
113	0x3d8b408d	0.067994215
114	0x3d1cd703	0.03829099
115	0x3d982b21	0.07430101
116	0x3d7f1bad	0.062282253
117	0x3d59c8dd	0.053170074
118	0x3da621fe	0.08111952
119	0xbcb9ce4d	-0.02268138
120	0x3d3cc496	0.046085916
121	0x3d83111d	0.063997485
122	0xbce11372	-0.027475093
123	0xbd9e1876	-0.07719509
124	0xbda973b0	-0.08274019
125	0xbd5d48de	-0.05402457
126	0xbd875a90	-0.0660907
127	0x3dc8928c	0.097935766
128	0x3aaff5f3	0.0013424739
129	0xbd082245	-0.033235807
130	0xbdab31ca	-0.08359106
131	0xbd84d861	-0.064865835
132	0x3d1bd5d3	0.038045716
133	0x3d812100	0.063051224
134	0x3d867094	0.06564441
135	0xbca18444	-0.01971639
136	0x3cf02f55	0.029319445
137	0x3d4e8ea6	0.05042901
138	0xbd5eb728	-0.05437389
139	0x3d3e096c	0.046395704
140	0xbd7ac609	-0.061224017
141	0x3c8abb7e	0.016935106
142	0x3d4dc045	0.05023219
143	0x3c0bc5b3	0.008531022
144	0x3ca76020	0.020431578
145	0x3dc38604	0.09547046
146	0xbdb84133	-0.08996811
147	0xbd205af9	-0.03914926
148	0x3c639014	0.013889331
149	0xbd973376	-0.07382862
150	0xbd577ccf	-0.05260926
151	0x3d23f516	0.040028654
152	0x3dc0b083	0.09408667
153	0x3d0dbb47	0.03460243
154	0xbcb867ff	-0.022510527
155	0xbd410bf1	-0.04713053
156	0x3d8b5f86	0.06805329
157	0xbd10f2c3	-0.035387766
158	0x3d742137	0.05960199
159	0x3dc21fb1	0.09478701
160	0xbd840ebc	-0.06448123
161	0xbb715f12	-0.0036830348
162	0xbc896f17	-0.016776605
163	0xbdc17eeb	-0.09448036
164	0x3cf99993	0.030468738
165	0xbdc376c5	-0.09544138
166	0x3d9f759e	0.077861056
167	0x3dc8f840	0.09812975
168	0x3db041fa	0.08606334
169	0xbd87f0cb	-0.066377245
170	0x3cd2c720	0.025729716
171	0x3c3babff	0.011454581
172	0x3db7a31d	0.08966658
173	0x3d392913	0.045205187
174	0x3cbe3cda	0.023222376
175	0xbcd9b6e1	-0.026576461
176	0x3bceb3ce	0.0063080555
177	0x3da63aea	0.08116706
178	0xbd841313	-0.064489506
179	0x3dabdcb3	0.083917044
180	0xbd2b590e	-0.041832976
181	0xbda3ece5	-0.080041684
182	0x3daa9aff	0.083303444
183	0xbd045dd8	-0.03231606
184	0xbd9e9ae4	-0.07744387
185	0xbc8877ac	-0.016658626
186	0x3da9bb97	0.08287733
187	0xbd870a31	-0.06593741
188	0xbcbf23f6	-0.023332577
189	0x3d591533	0.052998733
190	0xbd5a8e43	-0.053358328
191	0xbd3a3f91	-0.045470778
192	0x3db611cc	0.08890113
193	0xbd53274f	-0.05155116
194	0x3b9d78c2	0.004805655
195	0x3db0dd53	0.08635964
196	0x3c2eb513	0.010663289
197	0x3d82791b	0.06370755
198	0xbd916e49	-0.07101113
199	0x3d183ea5	0.037169117
200	0x3dc825cd	0.09772835
201	0x3d230a97	0.03980502
202	0xbda3de2a	-0.08001359
203	0x3d0b9dff	0.034086224
204	0xbdc3aad1	-0.09554065
205	0xbdc5a4e9	-0.09650595
206	0xbd2c10d8	-0.04200825
207	0x3c87b4f3	0.016565775
208	0xbdb97355	-0.09055201
209	0xbda1dee2	-0.0790384
210	0xbd3956ee	-0.04524892
211	0xbdba11b1	-0.090854056
212	0xbda0e9c9	-0.07857091
213	0xbcea3922	-0.028591696
214	0xbd9f7f58	-0.07787961
215	0xbb89d4cc	-0.0042062756
216	0x3d680e57	0.0566543
217	0x3c7422aa	0.014900843
218	0xbda565fe	-0.08076094
219	0x3d9d4c62	0.076805845
220	0x3d0bce4c	0.034132287
221	0xbd379996	-0.044824205
222	0xbdaf8a37	-0.08571284
223	0xbdabc2c8	-0.08386761
224	0x3c1c5425	0.009541546
225	0x3d31176b	0.043235224
226	0x3d055a63	0.032556903
227	0x3da79bda	0.08184023
228	0xbd4c67e0	-0.04990375
229	0xbdba1514	-0.090860516
230	0xbd39a543	-0.04532362
231	0xbd965e21	-0.073421724
232	0xbda6d656	-0.0814635
233	0x3cb9ffe6	0.02270503
234	0xbcfa3036	-0.030540567
235	0x3d9f5d22	0.077814355
236	0xbdc1b8ac	-0.094590515
237	0xbc43d53a	-0.011952693
238	0xbd99ebb7	-0.07515662
239	0x3d36daab	0.04464213
240	0x3cc0b8b2	0.02352557
241	0xbaf4bc56	-0.0018671851
242	0x3c468e3d	0.012118873
243	0xbd764467	-0.060123827
244	0x3d9f5a21	0.077808626
245	0xbdbcab74	-0.092123896
246	0xbbca8728	-0.0061806627
247	0x3d749988	0.05971673
248	0xbd0cb094	-0.034348086
249	0x3cd5d95e	0.026104625
250	0xbd5798d2	-0.052635975
251	0x3dbd00c2	0.0922866
252	0xbc5d38f4	-0.013502348
253	0xbd01ed67	-0.031720545
254	0x3c1953a5	0.009358321
255	0xbd896ff2	-0.06710805

mlp2.0.bias f4 [100]
0	0xbd9eee81	-0.07760335
1	0x3d26d4c2	0.040730245
2	0x3b714b91	0.0036818723
3	0x3d782afc	0.060587868
4	0xbcc3a711	-0.023883374
5	0xbc7169d4	-0.014734704
6	0xbca54bc1	-0.020177724
7	0x3c58e3cc	0.013237905
8	0xbd785ae7	-0.060633566
9	0xbc853d38	-0.016264543
10	0xbc30ad67	-0.01078353
11	0x3c1dd4bc	0.009633239
12	0x3d8735c0	0.06602049
13	0xbd104b2d	-0.035227943
14	0xbcf60eb2	-0.030036304
15	0x3db9f8e9	0.09080679
16	0x3bbcd7d9	0.0057630357
17	0xbc905329	-0.017617779
18	0x3b9a56e0	0.0047100633
19	0xbd95e8b2	-0.07319774
20	0xbdad982b	-0.08476289
21	0x3dc396ef	0.09550273
22	0xbc97f4eb	-0.018549403
23	0xbdb0c214	-0.086307675
24	0x3d96694b	0.07344302
25	0xbd11a676	-0.03555914
26	0xbd846c2a	-0.06465943
27	0xbdc53d9d	-0.096308924
28	0x3c143bad	0.009047431
29	0x3d3b0966	0.04566326
30	0x3ccad360	0.024758995
31	0xbd94b9cd	-0.07262001
32	0xbd824c0b	-0.0636216
33	0x3d9454ad	0.07242713
34	0x3bd5376a	0.00650685
35	0x3cff7d0c	0.031187557
36	0xbcbe80a7	-0.023254706
37	0x3bf2c4b9	0.007408705
38	0xbc2b2eeb	-0.010448198
39	0x3d41a891	0.047279898
40	0x3d963b37	0.07335513
41	0xbda3955e	-0.07987474
42	0x3d8ab183	0.06772139
43	0x3d6ae32a	0.057345547
44	0x3cc9e6a5	0.024646113
45	0x3d3d8d99	0.046277616
46	0x3d1428a7	0.03617158
47	0x3d49c85f	0.049263354
48	0xbdca5de1	-0.09881187
49	0xbd1c5346	-0.038165353
50	0x3dcf764b	0.101299845
51	0x3d1fcd78	0.03901431
52	0xbd94b9d7	-0.07262009
53	0xbdb1a752	-0.08674492
54	0xbc496d1a	-0.012294078
55	0xbdabcd00	-0.0838871
56	0x3c696874	0.014246095
57	0xbdb3c639	-0.08778042
58	0xbda8c261	-0.082402
59	0x3b110e8c	0.0022133915
60	0xbd89e66b	-0.06733402
61	0x3dd471f0	0.10373294
62	0xbc9e65d7	-0.01933567
63	0x3cff63e9	0.03117557
64	0xbd10d0b0	-0.03535527
65	0xbd951f60	-0.07281375
66	0xbcf7ad50	-0.030234009
67	0xbb0069b5	-0.0019594256
68	0x3d1067ba	0.03525517
69	0x3da2f68f	0.079571836
70	0xbc822b61	-0.015889825
71	0x3da9334a	0.08261736
72	0xbafeec7d	-0.0019449141
73	0xbcb5b0fd	-0.022179121
74	0xbd459493	-0.048237395
75	0xbda57b53	-0.08080163
76	0xbca4f22c	-0.020135008
77	0xbdc2efa2	-0.095183626
78	0xbdbb28ad	-0.09138618
79	0xbd43b591	-0.047780577
80	0x3d39311e	0.045212857
81	0x3d942ffb	0.07235714
82	0x3bbca8e2	0.005757437
83	0xbdad9320	-0.084753275
84	0x3d8ded25	0.06929997
85	0xbdbb94a6	-0.09159212
86	0xbd0479b9	-0.032342646
87	0x3d40006d	0.046875406
88	0xbc92832d	-0.017884815
89	0x3c24b875	0.010053744
90	0xbd4b7440	-0.04967141
91	0xbd13b71a	-0.03606329
92	0xbd361b4f	-0.044459637
93	0x3d0f5bce	0.03499966
94	0x3db0d665	0.086346425
95	0xbc396745	-0.011316125
96	0xbca35a16	-0.019940417
97	0xbdb8b5fd	-0.090190865
98	0x3da3a8da	0.0799119
99	0xbd1f6829	-0.038917694

mlp2.2.weight f4 [50, 100]
0	0xbcc27f18	-0.023742244
1	0x3d29a99c	0.041421518
2	0x3c6c3d16	0.014418861
3	0xbd12addd	-0.03581034
4	0xbd94416d	-0.072390415
5	0xbd752078	-0.059845418
6	0x3d185014	0.037185743
7	0xbcb30ddd	-0.021857196
8	0x3d048c42	0.032360323
9	0x3dac55de	0.08414815
10	0xbd4cf2cd	-0.05003624
11	0x3d81385d	0.063095786
12	0xbd157ccb	-0.036495965
13	0x3cb38650	0.021914631
14	0xbc04a7c0	-0.008096635
15	0x3c8e5fc1	0.017379643
16	0x3cd0b1aa	0.025475342
17	0xbd062163	-0.032746684
18	0xbd94d5d2	-0.072673455
19	0xbd5a083a	-0.0532305
20	0x3d8cb8de	0.06871198
21	0x3d6c40a8	0.05767885
22	0x3cf69ac1	0.03010309
23	0xbc1e727c	-0.00967085
24	0x3dbb8830	0.09156835
25	0x3d1623da	0.036655284
26	0xbdae7c71	-0.08519829
27	0x3db19bad	0.08672271
28	0xbd8d0749	-0.06886155
29	0xbc1cc0d3	-0.009567457
30	0x3d4c9369	0.04994527
31	0xbd54a9dd	-0.051919807
32	0xbcac0f17	-0.02100329
33	0xbd48813e	-0.04895138
34	0xbdbdd5ab	-0.092692696
35	0x3ce4a224	0.027909346
36	0xbdcafdbd	-0.09911678
37	0xbd3b2fb5	-0.045699794
38	0xbdb4be28	-0.08825332
39	0x3c32fc3e	0.010924397
40	0x3d571c9e	0.052517526
41	0x3c70a615	0.014688035
42	0x3c878350	0.016542107
43	0xbc858eb1	-0.016303392
44	0xbd9fa250	-0.077946305
45	0x3d968568	0.07349664
46	0xbda705a7	-0.08155375
47	0x3c80329c	0.015649132
48	0xbd62019e	-0.055177324
49	0xbd89e5b3	-0.06733265
50	0x3db9499a	0.090472415
51	0x3dcd8bc1	0.100364216
52	0x3c646b63	0.013941619
53	0x3dcb2161	0.09918476
54	0xbd8ce792	-0.06880106
55	0xbda34f96	-0.07974164
56	0xbd7de264	-0.06198348
57	0x3db017d2	0.08598293
58	0xbd9c78f5	-0.07640258
59	0xbd3bfb07	-0.045893695
60	0x3da93d37	0.08263629
61	0xbdb098c9	-0.086228915
62	0xbaa00606	-0.0012208826
63	0x3bbcc9d6	0.0057613654
64	0x3d9301ea	0.071780995
65	0x3da71f59	0.08160276
66	0x3d1f2132	0.038850017
67	0xbd08bcd3	-0.0333832
68	0xbd8778a2	-0.06614806
69	0x3d65114c	0.0559247
70	0xbd5c6352	-0.053805657
71	0xbdab848f	-0.08374893
72	0xbc81aacb	-0.01582851
73	0x3d1d4978	0.038400143
74	0xbdbfacfa	-0.093591645
75	0x3ccd3b44	0.025052674
76	0x3d8bb1e4	0.06821039
77	0xbdc42677	-0.09577649
78	0xbca85020	-0.02054602
79	0xbdadfef1	-0.08495892
80	0xbd8f8bbe	-0.070090756
81	0x3c83dd61	0.016096773
82	0xbdac1a0f	-0.08403408
83	0x3d5855ce	0.052816205
84	0x3da8872c	0.08228907
85	0x3da01448	0.07816368
86	0xbd743263	-0.059618365
87	0xbd2c1ec2	-0.04202152
88	0xbc523833	-0.012830782
89	0xbdb80836	-0.08985941
90	0xbdb84619	-0.08997745
91	0x3d35b6d1	0.0443638
92	0xbcd74360	-0.026277244
93	0xbda5c3af	-0.08093964
94	0xbdbc7edb	-0.09203883
95	0xbc15f24b	-0.009152005
96	0x3ca77f6d	0.020446504
97	0x3d0b8762	0.034064658
98	0x3cf38a29	0.029728966
99	0xbc8dffae	-0.017333832
100	0xbd540bb5	-0.051768977
101	0x3cbd857d	0.023134941
102	0xbd926c22	-0.07149531
103	0x3d15bbd9	0.0365561
104	0xbd5ac0f6	-0.05340668
105	0xbb259771	-0.0025267268
106	0x3d38a969	0.045083437
107	0x3cfccf81	0.030860664
108	0xbda12e7b	-0.078701936
109	0x3ac4254f	0.0014964732
110	0xbd73ea46	-0.059549592
111	0x3bce217c	0.0062906127
112	0x3d210e90	0.03932053
113	0x3d990239	0.07471127
114	0xbc64bd40	-0.013961136
115	0xbd98fae1	-0.07469726
116	0x3d3d753f	0.046254393
117	0xbce95e61	-0.028487386
118	0xbd0fa0c6	-0.035065435
119	0xbdcc5b6a	-0.09978373
120	0xbccbed65	-0.024893472
121	0x3db94cd5	0.09047858
122	0xbd9e5742	-0.07731487
123	0xbda3cb67	-0.0799778
124	0x3d0b0abb	0.03394578
125	0x3cd6273a	0.026141752
126	0x3dbe0ca5	0.092797555
127	0xbd4fccd3	-0.050732445
128	0xbbb72696	-0.0055893166
129	0x3d9c3e13	0.07629027
130	0x3a223486	0.0006187636
131	0xbd626e83	-0.055281173
132	0xbca85608	-0.020548835
133	0xbda94701	-0.08265496
134	0xbd4dd056	-0.050247513
135	0x3d567122	0.052353986
136	0xbd93a1d7	-0.07208603
137	0x3cd66a68	0.026173785
138	0x3d4d5a3d	0.050134886
139	0xbc45ed58	-0.012080513
140	0x3c955660	0.018229663
141	0xbcff237e	-0.031144854
142	0x3d822cf8	0.06356233
143	0xbcbb81be	-0.022889014
144	0xbdcd9899	-0.10038871
145	0x3dbd15ff	0.09232711
146	0x3d32cd2d	0.043652702
147	0x3d66633e	0.05624699
148	0xbdac0393	-0.08399119
149	0x3d15eaa4	0.036600724
150	0x3db1fbdd	0.08690617
151	0xbc00a83c	-0.00785261
152	0x3b9d1505	0.0047937655
153	0x39315021	0.00016909886
154	0xbdc7808e	-0.09741317
155	0xbcc76b07	-0.024343027
156	0xbd2d67ef	-0.042335447
157	0x3db4769b	0.08811685
158	0xbd8370a8	-0.06417972
159	0x3d97f35a	0.074194625
160	0x3db556d2	0.0885445
161	0x3c3ad184	0.0114024915
162	0xbda0c977	-0.07850926
163	0x3cc2d865	0.023784826
164	0x3c85c29c	0.016328149
165	0xbd8ea920	-0.06965852
166	0xbce51584	-0.027964361
167	0x3d8a1286	0.06741814
168	0x3ba3619e	0.004986002
169	0xbd6f6a55	-0.058451016
170	0x3d87c830	0.066299796
171	0x3d6a4f6a	0.05720464
172	0xbdafa13d	-0.08575676
173	0x3d875bc2	0.06609298
174	0xbdc4771c	-0.09593031
175	0xbd103f1f	-0.035216447
176	0x3d3c6da8	0.046003014
177	0xbd9b14cb	-0.07572325
178	0x3b9e1bbc	0.0048250835
179	0xbd8dd842	-0.069260135
180	0xbd9ea7da	-0.07746859
181	0xbcb8e8e5	-0.02257199
182	0x3dc79354	0.097448975
183	0x3d29f50e	0.041493468
184	0xbd20a9cf	-0.039224442
185	0x3db0261c	0.08601019
186	0xbcf86877	-0.03032325
187	0x3bbc3b13	0.005744347
188	0xbdc172a2	-0.094456926
189	0xbca999d6	-0.020703238
190	0x3d6fecf0	0.05857557
191	0x3d1065a6	0.03525319
192	0x3db3a7d6	0.087722465
193	0x3d85eaf8	0.06538957
194	0x3da95903	0.08268931
195	0x3b519bef	0.0031983813
196	0x3d608e71	0.054823343
197	0x3cae6221	0.021287026
198	0xbdc64b6f	-0.096823566
199	0xbcf9587c	-0.0304377
200	0xbdc441ee	-0.095828876
201	0xbd904fe5	-0.07046489
202	0xbdb5febd	-0.08886478
203	0xbdb1be8d	-0.08678923
204	0xbd92e8ee	-0.07173334
205	0xbdbd30d5	-0.092378296
206	0xbd83050c	-0.06397447
207	0x3d173002	0.03691102
208	0x3c5f5bd8	0.013632737
209	0x3da6f9dd	0.081531264
210	0xbd7feef6	-0.06248375
211	0x3d5295e6	0.051412486
212	0xbd864b92	-0.06557383
213	0xbda5bb82	-0.08092405
214	0xbcf094f4	-0.029367901
215	0xbda53306	-0.080663726
216	0x3d467ce3	0.048458945
217	0x3cbfae7e	0.023398634
218	0x3d9aac3b	0.075523816
219	0x3dafb45f	0.08579325
220	0x3d11a8d3	0.035561394
221	0x3da656da	0.08122034
222	0xbdb5729d	-0.088597514
223	0x3a08b904	0.0005215558
224	0xbcbca8b0	-0.023029655
225	0xbd8aba56	-0.06773822
226	0xbcaaed00	-0.020864964
227	0xbdb4da77	-0.08830731
228	0xbdb52f45	-0.088469066
229	0x3da75f98	0.0817253
230	0xbdcdbcc8	-0.10045773
231	0x3dbf1701	0.093305595
232	0xbd21c430	-0.03949374
233	0x3cd3a57b	0.025835743
234	0x3d845f04	0.06463435
235	0x3d78e32f	0.060763534
236	0xbd043ceb	-0.03228466
237	0xbc3db9a1	-0.011579902
238	0xbd463194	-0.048387125
239	0x3dbfc505	0.0936375
240	0x3d5e3b7d	0.05425595
241	0x3d7f7614	0.062368467
242	0xbccb1afa	-0.024793137
243	0xbd8e089a	-0.06935234
244	0x3ba4eb63	0.005032943
245	0x3d2acce7	0.041699316
246	0xbd09745b	-0.03355823
247	0x3cedd677	0.029032929
248	0xbbd134e7	-0.0063844803
249	0xbd3bb8c6	-0.04583051
250	0x3d801520	0.06254029
251	0x3d94718a	0.07248218
252	0x3d8643c7	0.06555896
253	0x3d4e5fb9	0.050384257
254	0xbc91de4a	-0.017806191
255	0xbd03e325	-0.032199044

mlp2.2.bias f4 [50]
0	0x3db0449c	0.08606836
1	0xbd88e067	-0.06683426
2	0x3d8be76b	0.06831249
3	0xbd49248a	-0.049107112
4	0x3c8cdfd1	0.017196568
5	0xbcd79af1	-0.026318999
6	0x3d8f8308	0.07007414
7	0xbda6f5d4	-0.08152357
8	0x3d1b9253	0.037981343
9	0xbd819710	-0.06327641
10	0xbd140b7f	-0.036143776
11	0xbdc02930	-0.09382856
12	0xbd564252	-0.05230934
13	0x3db8f018	0.09030169
14	0xbd00bd87	-0.031430747
15	0xbc103db5	-0.008803775
16	0x3dc58e86	0.09646325
17	0xbce099a8	-0.027417019
18	0xbd340262	-0.043947585
19	0x3d6476ba	0.05577729
20	0xbda201b0	-0.07910478
21	0x3de131aa	0.10995801
22	0x3dbec964	0.09315756
23	0x3daa2c3f	0.083092205
24	0x3d943023	0.07235744
25	0xbc9cd464	-0.019144244
26	0xbdafda67	-0.08586579
27	0x3d95408e	0.072877035
28	0x3ce79a8d	0.028271938
29	0x3d84a210	0.064762235
30	0xbd1f5ee0	-0.03890884
31	0x3c369815	0.011144658
32	0xbd63705f	-0.055527087
33	0x3da1b059	0.07894964
34	0xbd9c0b23	-0.07619312
35	0x3c9e2877	0.019306405
36	0xbd6c724b	-0.057726186
37	0xba8a4213	-0.0010548256
38	0x3d716283	0.05893184
39	0xbdd3a3a5	-0.10333947
40	0xbce2904d	-0.027656699
41	0x3c8ee6d7	0.017444057
42	0x3d83644c	0.064156145
43	0x3dd41b7a	0.10356803
44	0xbc4fc899	-0.012682104
45	0x3db05656	0.08610217
46	0xbd3ef134	-0.046616748
47	0x3d06655c	0.032811508
48	0xbd361394	-0.044452265
49	0x3d6c40e3	0.05767907

attention.0.weight f4 [100, 200]
0	0x3d909c20	0.070610285
1	0x3ce3dbf7	0.027814848
2	0xbb1d2590	-0.0023978688
3	0x3a4edb3d	0.00078909454
4	0x3d194c95	0.03742655
5	0x3c9ee6c6	0.01939715
6	0xbb8f10c4	-0.0043660123
7	0xbbdba46b	-0.0067029498
8	0x3d5b39f5	0.05352207
9	0x3d1712ba	0.036883093
10	0xbd4627ba	-0.04837773
11	0x3d60f17d	0.0549178
12	0x3d809633	0.06278648
13	0x3d7e9715	0.0621558
14	0xbb748208	-0.003730895
15	0x3d737d7a	0.059445836
16	0xbd838d05	-0.06423382
17	0xbd6c54d3	-0.057698082
18	0x3c746249	0.014916011
19	0xbd4dd886	-0.05025532
20	0xbd61a736	-0.055091105
21	0xbd1576c7	-0.036490228
22	0x3d0c6ea9	0.03428522
23	0xbd2aca5d	-0.041696895
24	0xbd55135d	-0.05202042
25	0x3d84fb33	0.06493225
26	0x37b9fc66	2.217125e-05
27	0x3d86020b	0.065433584
28	0xbb0eb2e4	-0.0021774108
29	0x3c333c7f	0.010939716
30	0xbd58ac74	-0.05289884
31	0xbd4ca28a	-0.049959697
32	0xbd1fbd60	-0.03899896
33	0x3d3777ad	0.044791866
34	0x3d2fb4f8	0.042897195
35	0xbcc0cfe8	-0.023536637
36	0x3d34f05f	0.04417455
37	0x3d7edd61	0.062222842
38	0xbc25875b	-0.010103072
39	0xbca9527f	-0.02066922
40	0xbbeb6fdc	-0.0071849655
41	0xbd8ce17f	-0.068789475
42	0x3ccce994	0.025013722
43	0xbd885c94	-0.06658283
44	0xbd619f7e	-0.055083744
45	0x3d70ea1e	0.05881702
46	0x3ce49eaa	0.027907688
47	0xbc3da1c5	-0.011574213
48	0x3d80783a	0.062729314
49	0x3d041add	0.03225218
50	0x3d537988	0.051629573
51	0xbd8ea0f4	-0.06964293
52	0x3cacddc8	0.021101847
53	0x3d5f9661	0.054586772
54	0xbb0d6775	-0.0021576558
55	0x3ca9b9b1	0.020718427
56	0x3c1a0d5a	0.009402597
57	0x3d5d4bdf	0.054027434
58	0x3d575d74	0.05257936
59	0xbd56de3a	-0.052458026
60	0xbd849327	-0.064733796
61	0xbd496e13	-0.04917724
62	0x3d443b5d	0.047908176
63	0xbd67fb39	-0.05663607
64	0xbb0be994	-0.002134894
65	0xbbaea17c	-0.005329309
66	0xbcd47fe6	-0.025939893
67	0x3d892bb9	0.066977926
68	0x3d52caac	0.051462814
69	0xbcbad09e	-0.022804555
70	0xbd47f69d	-0.048819173
71	0xbc9c1642	-0.019053582
72	0xbcaea0b1	-0.021316858
73	0x3bce4e04	0.0062959213
74	0xbccf8b2d	-0.025334919
75	0x3d47976d	0.048728395
76	0x3c35831a	0.01107862
77	0x3cba9d69	0.022780137
78	0xbd4ed4ba	-0.05049584
79	0xbc387f58	-0.01126083
80	0x3be6a949	0.0070392233
81	0xbd3c7f70	-0.04601997
82	0xbd6108a2	-0.054939874
83	0xbcbb6d02	-0.022879127
84	0x3d8d99b5	0.06914083
85	0xbd891d49	-0.06695039
86	0x3d033fec	0.032043383
87	0x3d85df27	0.065367036
88	0x3d64ef4f	0.055892285
89	0xbd790800	-0.060798645
90	0xbd883cf8	-0.06652254
91	0xbd861fa9	-0.065490074
92	0xbd438e21	-0.047742967
93	0xbc326baa	-0.010889927
94	0xbd904939	-0.07045216
95	0xbd7b414f	-0.06134158
96	0xbd80d7c6	-0.062911555
97	0x3d41ef79	0.04734752
98	0x3d0624ed	0.03275006
99	0xbae6a8f5	-0.001759796
100	0x3cac74ab	0.021051725
101	0x3d44ac12	0.04801566
102	0xbd22b465	-0.03972282
103	0x3d5c5fa9	0.053802166
104	0x3c2fbd4a	0.010726282
105	0x3c95b4b6	0.018274646
106	0xbc1c21fc	-0.009529587
107	0xbd80521d	-0.06265662
108	0xbd26fe88	-0.040770084
109	0xbca53afe	-0.020169731
110	0xbbb00b68	-0.0053724535
111	0x3d5a2551	0.053258244
112	0xbd601e57	-0.054716434
113	0x3cb2645f	0.021776376
114	0xbccee696	-0.025256436
115	0xbd1eba91	-0.038752142
116	0x3d8148db	0.06312724
117	0x3910ff0b	0.00013827921
118	0xbd84292f	-0.06453168
119	0xbc41d9b2	-0.011831688
120	0xbd573839	-0.052543852
121	0xbd449c06	-0.048000358
122	0xbcd3b72e	-0.025844183
123	0xba6946c6	-0.00088987907
124	0xbd0c893c	-0.034310564
125	0xbd05e9cd	-0.032693673
126	0x3c7ba01a	0.015357995
127	0x3c5cc4e4	0.013474677
128	0xbd8f9d26	-0.070123956
129	0x3d147867	0.036247637
130	0xbcd02432	-0.025407884
131	0xbd8f438b	-0.06995305
132	0xbce04e0b	-0.027380964
133	0xbd5002ce	-0.050783925
134	0xbd1df10e	-0.038559966
135	0xbcf6fcd5	-0.030149857
136	0xbcaa32ab	-0.020776113
137	0xbd2f960d	-0.04286771
138	0xbd18e0b9	-0.037323687
139	0xbbf588a4	-0.0074930955
140	0x3d7f8f9e	0.062392823
141	0xbd875109	-0.06607253
142	0xbd3f15f8	-0.04665181
143	0x3ca07dc1	0.019591214
144	0xbbb09c30	-0.0053897128
145	0xbcbcc8a4	-0.023044892
146	0x3d00a0e0	0.031403422
147	0xbd898693	-0.06715121
148	0xbd024dd8	-0.03181252
149	0x3c9eeed1	0.019400986
150	0x3c22ba00	0.009932041
151	0xbd8eafd0	-0.06967127
152	0xbd77c3c1	-0.06048942
153	0x3d901cf9	0.07036776
154	0x3cbe09ae	0.023197975
155	0x3d81477c	0.06312463
156	0xbc3c2649	-0.011483737
157	0xbca2c6d4	-0.0198702
158	0x3d7a6ec6	0.061140798
159	0x3cc6bba7	0.024259401
160	0xbc8ba213	-0.017045056
161	0x3d75e48b	0.06003241
162	0x3d188c75	0.037243325
163	0xbc9f4812	-0.019443545
164	0x3c879298	0.016549394
165	0x3d60f754	0.05492337
166	0xbcbc4e36	-0.022986513
167	0xbb2877fe	-0.0025706287
168	0x3c1a8aec	0.009432536
169	0x3d6d5473	0.057941865
170	0x3c0cbcdd	0.00858995
171	0x3d63ef66	0.05564823
172	0xbd7628be	-0.06009745
173	0xbd669474	-0.05629392
174	0xbd217f00	-0.039427757
175	0x3cad1ae8	0.021130994
176	0xbd833b18	-0.064077556
177	0x3b0bf405	0.0021355164
178	0xbd864623	-0.06556346
179	0x3c10cf28	0.008838452
180	0xbd81c0aa	-0.06335576
181	0x3d601db4	0.054715827
182	0x3d8baf08	0.06820494
183	0x3d00bde8	0.03143111
184	0x3d01c911	0.031685892
185	0xbc606e88	-0.013698228
186	0x3d8c3841	0.06846667
187	0x3d857fd7	0.06518524
188	0x3d81490c	0.06312761
189	0x3d27dbf3	0.040981244
190	0x3d84863f	0.06470918
191	0xbcdc17fa	-0.026866902
192	0xbd526668	-0.051367193
193	0x3ccacdb4	0.02475629
194	0x3d8f27db	0.06990024
195	0xbd04f854	-0.032463387
196	0x3d173bed	0.036922384
197	0xbc0da843	-0.008646074
198	0x3b32030b	0.0027162458
199	0x3bb900d7	0.005645852
200	0xbd065933	-0.03279991
201	0xbcae5e02	-0.02128506
202	0x3d0d9736	0.034568034
203	0xbce06772	-0.027393077
204	0xbc6b6f34	-0.014369775
205	0x3be31a50	0.006930627
206	0xbcda507c	-0.026649706
207	0x3d89355b	0.0669963
208	0xbc1846cc	-0.009294223
209	0xbd397198	-0.045274347
210	0xbd3e3f6e	-0.04644721
211	0xbcea2a5c	-0.028584652
212	0x3cea09f0	0.028569192
213	0x3d4e7a72	0.05040974
214	0x3d65d8ba	0.05611489
215	0x3d1f56ee	0.038901262
216	0x3d20829a	0.03918705
217	0xbc9ef7c8	-0.01940526
218	0x3cbabe78	0.0227959
219	0x3cacbdf0	0.021086663
220	0xbd662a2d	-0.056192566
221	0x3d671d2a	0.056424297
222	0xbd8c3134	-0.06845322
223	0x3b1cea20	0.002394326
224	0x3d854a6d	0.06508336
225	0xbbf96710	-0.007611163
226	0x3c7aba28	0.015303172
227	0x3d71279a	0.058875658
228	0xbd825746	-0.06364302
229	0x3c8059c4	0.015667804
230	0x3d1a39fe	0.037652962
231	0xbd5dc366	-0.054141425
232	0xbd287e56	-0.04113611
233	0xbb969180	-0.0045949817
234	0x3c27aab8	0.010233574
235	0xbd3bcc10	-0.045848906
236	0xbd76e9ad	-0.060281444
237	0x3d64b37e	0.05583524
238	0x3d1260f8	0.035737008
239	0x3d1ec95c	0.03876625
240	0xbd89da4e	-0.067310914
241	0x3c878668	0.016543582
242	0x3c5af078	0.013362996
243	0x3d309670	0.04311222
244	0xbcfe512a	-0.031044561
245	0xbd88d339	-0.066809125
246	0xbcc0d568	-0.02353926
247	0xbc9000ec	-0.017578565
248	0xbd125f5e	-0.03573548
249	0xbc96acec	-0.018393002
250	0xbc540b74	-0.012942184
251	0xbd37553a	-0.044759013
252	0xbd1e437b	-0.038638573
253	0x3a6a2880	0.00089324266
254	0x3c154b10	0.009112135
255	0x3bce58c0	0.006297201

attention.0.bias f4 [100]
0	0x3d81d92d	0.06340251
1	0xbc30f830	-0.01080136
2	0x3d31ccae	0.04340809
3	0x3c16cb92	0.009203808
4	0xbd8e2e57	-0.069424324
5	0xbd820e9d	-0.063504435
6	0x3bb7a81a	0.005604756
7	0xbd9064be	-0.07050465
8	0xbcb1279a	-0.021625329
9	0xbd7ed5bd	-0.062215555
10	0xbc9fb283	-0.0194943
11	0x3ce5640a	0.028001804
12	0xbc9f5460	-0.019449413
13	0x3cd1cea6	0.025611233
14	0x3c9286e0	0.017886579
15	0xbd413136	-0.04716607
16	0x3d3a06bd	0.045416582
17	0xbd8b86dd	-0.068128325
18	0xbd219aa8	-0.039454132
19	0x3d84bbe4	0.0648115
20	0xbd908e2f	-0.07058369
21	0x3c395153	0.011310893
22	0xbce6fe29	-0.028197365
23	0x3d682dc6	0.056684278
24	0xbd09e862	-0.033668883
25	0xbd4c3a26	-0.049860142
26	0x3d73920f	0.059465464
27	0x3c0cbd65	0.008590077
28	0xbcf14a8d	-0.029454494
29	0xbd7ae108	-0.061249763
30	0xbd620e8a	-0.055189647
31	0xbd72cc1f	-0.059276696
32	0x3d419190	0.04725796
33	0xbcd242b4	-0.025666572
34	0xbd02d667	-0.03194275
35	0x3c8f5ed6	0.017501276
36	0x3c66628d	0.014061582
37	0xbc6e0449	-0.014527389
38	0x3c96377b	0.018337002
39	0xbd6c25b1	-0.057653133
40	0x38b8fb78	8.8206434e-05
41	0xbd88a4c2	-0.0667205
42	0xbd007160	-0.031358123
43	0xbd3ea684	-0.04654552
44	0x3ca6dc16	0.020368617
45	0xbc3a1d3c	-0.011359509
46	0xb88a974b	-6.608533e-05
47	0x3d89c8db	0.06727763
48	0xbc868aad	-0.016423548
49	0xbd3cb6c4	-0.046072736
50	0xbcf7e388	-0.030259863
51	0xbd0c9b56	-0.034327827
52	0xbb7e4948	-0.0038801003
53	0x3c954520	0.018221438
54	0xbab5fd51	-0.0013884698
55	0xbd44ab13	-0.04801471
56	0x3b0b5ac4	0.0021263817
57	0xbca683dc	-0.020326547
58	0x3d036c31	0.0320856
59	0xbd8162fe	-0.063177094
60	0xbd851085	-0.064972915
61	0x3c93a9a3	0.018025225
62	0x3c659071	0.014011488
63	0xbcdb73c2	-0.026788596
64	0xbd62e46e	-0.05539363
65	0xbd81e6f4	-0.06342879
66	0xbc9f4234	-0.019440748
67	0xbc5a67d9	-0.013330423
68	0x3cac2683	0.021014458
69	0x3b7354ec	0.0037129475
70	0xbbe2d704	-0.0069226045
71	0xbd4b9f42	-0.049712427
72	0xbcfc6f9f	-0.030814944
73	0x3d311eb5	0.043242175
74	0x3d7158a9	0.058922444
75	0x3d903c98	0.07042807
76	0xbd48da07	-0.049036052
77	0xbd477cc9	-0.04870299
78	0x3d39f934	0.045403674
79	0x3d07f5c9	0.033193383
80	0x3c689b66	0.014197206
81	0x3c92683d	0.01787197
82	0xbd1aabdb	-0.03776155
83	0xbc845a7a	-0.016156424
84	0x3cd46f9e	0.02593213
85	0xbd85d009	-0.0653382
86	0x3ca3d06f	0.01999685
87	0x3c50481c	0.012712505
88	0xbd72aa26	-0.059244297
89	0x3d802b39	0.06258244
90	0x3cca0e89	0.024665134
91	0x3ca4e290	0.020127565
92	0xbd2e4550	-0.04254657
93	0xbc710761	-0.014711232
94	0x3d8d8f0e	0.06912051
95	0x3cab53b0	0.020913929
96	0xbd1edc7d	-0.038784493
97	0xbca83a37	-0.020535572
98	0x3d3702d1	0.04468042
99	0xbc8055de	-0.015665945
