crowd_nav/data/output/rl_model.pth (torch, 421155 bytes, 20 tensors)

mlp1.0.weight f4 [150, 61]
000000 0f 96 f0 bd d1 ac 63 3d b3 a0 b0 bd b2 29 a9 bd
       -0.117473714 0.055584732 -0.08624401 -0.08259906
000010 56 51 01 be dd e6 3a 3d 84 7c fa 3d f3 ed 91 bd
       -0.12628683 0.045630325 0.12230781 -0.07125463
000020 e3 fc 4d bd 1b 90 29 bc 1b 6f eb bd 36 ae a7 bd
       -0.05029 -0.010349299 -0.11495801 -0.08187525
000030 53 8a 50 bd d7 b4 44 bd f7 2b f3 3d d9 3b c2 3d
       -0.050913166 -0.048024025 0.1187362 0.09484071
000040 96 ad 36 bd 06 1b 27 bd db 4d 43 bd f3 5c f1 bd
       -0.04459914 -0.040797256 -0.04768167 -0.11785307
000050 54 23 7f bd 36 bd 95 bd ef f6 af 3d 59 bf 30 3d
       -0.06228955 -0.0731148 0.08592021 0.043151233
000060 46 c2 a7 bd 74 67 2b bd 2f 4a 0d 3d 83 f8 8a 3d
       -0.081913516 -0.041846707 0.034494575 0.06785681
000070 ef c5 84 bd d7 e7 8f bd 4e 6a eb bd f7 b1 c2 3d
       -0.06483065 -0.07026642 -0.114948854 0.095066
000080 51 a6 7d 3d 5a 77 26 3d 5e 56 f6 3d 93 b7 55 3d
       0.06192619 0.040641166 0.12028192 0.052177023
000090 26 d9 a0 3d 62 c0 a5 bc 66 22 5e bc a8 d6 43 3d
       0.07853918 -0.020233337 -0.013558006 0.047812134
0000a0 d2 1d 21 3c 1a 48 f2 3d 8c 38 e7 3d bc 4d 00 3e
       0.00983377 0.118301585 0.11290082 0.12529653
0000b0 53 f6 fd 3d a9 6a c5 bd bd af 01 be 3a 85 de 3d
       0.12400498 -0.096394844 -0.12664695 0.10865255
0000c0 2e 17 ac bd ce 99 19 bd b7 8e 01 be 2b 8c a1 bd
       -0.08402859 -0.037500195 -0.12652098 -0.07888063
0000d0 bc f9 b5 bd e9 44 e7 bd c4 c0 e3 bd 13 57 90 bd
       -0.08885524 -0.112924404 -0.111207515 -0.07047858
0000e0 68 6d 4f bc 68 c1 ed 3d e8 ac 4c bd 43 3e 01 be
       -0.012660362 0.11609155 -0.049969584 -0.12621407
0000f0 f4 f5 6f 3c 56 16 98 bd 49 fd 7d 3d da ad b8 bd
       0.014646042 -0.07426135 0.06200913 -0.090175346
000100 24 72 3c 3c b5 db 59 3c 4a 26 ea 3d 1d 2a 88 bd
       0.011501823 0.013297011 0.11433084 -0.066486575
000110 64 a0 60 bd 46 8a 23 3b f4 e8 95 3d 86 d9 a0 bc
       -0.05484046 0.0024954244 0.07319823 -0.019634973
000120 12 c5 f6 3d d9 8e 7a bd 7f 69 dd 3d 4a 09 9a 3d
       0.12049307 -0.061171386 0.108111374 0.07521303
000130 52 05 c0 3d 2f c3 3b bd 44 fa 68 bd 2f 29 41 3d
       0.09376015 -0.04584044 -0.056879297 0.047158416
000140 f9 b0 df bc 21 72 fe 3b aa 41 8d 3c d6 52 9e 3d
       -0.027306067 0.00776507 0.017243225 0.077306435
000150 0c 6e f1 bd 46 fb f2 bd 84 38 74 3c 18 a0 17 3d
       -0.11788568 -0.11864333 0.0149060525 0.03701791
000160 51 ee f0 3d 49 b3 86 bd e4 ee 65 bd 34 93 31 3c
       0.11764205 -0.06577165 -0.056136027 0.010838319
000170 f9 4f 3f 3a 78 92 6d 3c f3 fd b3 3d 6e e7 d6 bb
       0.00072979886 0.014500253 0.08788671 -0.0065583503
000180 80 be e0 ba 8b 59 da 3d 86 38 45 bd 53 c6 f2 3d
       -0.0017146617 0.1066161 -0.048149608 0.118542336
000190 1e 37 89 3c d4 c1 34 bd 61 1d d6 bd ad 1f 0d bd
       0.016749915 -0.04413016 -0.10454822 -0.034454037
0001a0 61 e8 91 bd ba e6 f9 bd a6 18 10 bc 97 4d 31 bd
       -0.07124401 -0.12202211 -0.008794939 -0.043286886
0001b0 92 85 56 3b 95 9b d6 3d 33 7a 05 3d a2 a0 b4 3d
       0.0032733423 0.10478894 0.03258724 0.08819701
0001c0 04 b5 fc 3d 63 29 6c bd 7e fb 57 bc a6 07 87 bd
       0.123392135 -0.057656657 -0.013182519 -0.06593256
0001d0 0d 2b ce 3c 08 7b 7b bd bf e3 bf 3d ae b4 cc 3c
       0.025167013 -0.06139663 0.09369611 0.024988499
0001e0 ad bc 9e 3d 77 f5 cb bd 2d ba 5b 3d 8e 75 f1 3b
       0.07750831 -0.09958928 0.053644348 0.00736875
0001f0 20 cb 6d bb 5c 25 01 3e 2c c0 18 3c 4b 5f 9e 3d
       -0.0036284402 0.12611908 0.009323161 0.077330194
000200 80 a3 11 3e 05 79 35 3d 2f f6 f2 bd 22 f5 47 3d
       0.14222527 0.044304866 -0.11863362 0.04881776
000210 2c 2b af bd 23 16 df 3d f6 53 2f 3d 5e 29 b9 3d
       -0.08553156 0.10892894 0.04280468 0.09041093
000220 f3 95 e9 bd e2 b9 11 bd a2 07 82 bb 3e 82 16 bd
       -0.11405554 -0.035577662 -0.003968195 -0.036745302
000230 6e 96 83 bd e6 e9 50 3d 3b 8a fd 3d 8d ec c4 bd
       -0.064251766 0.051004313 0.12379881 -0.09615431
000240 78 0d 16 3c b1 4f d5 bc b5 db 13 bc bd b9 21 bb
       0.009158485 -0.026038976 -0.00902455 -0.002467736
000250 1e 57 87 3d 01 4b 86 39 45 c2 5a 3d 2f 91 ac bd
       0.06608413 0.00025614354 0.053407926 -0.08426129
000260 67 9b 36 bd 4d 80 f2 3b 97 3c 32 3c bb fb ff 3d
       -0.044581797 0.0074005486 0.010878704 0.12499186
000270 1a 62 01 bd 08 d2 8d 3c 67 b5 a6 3d ef f9 71 3d
       -0.031587698 0.017312065 0.081400685 0.059076246
000280 20 27 80 bd df 8f 49 bd 28 f1 ca 3d 81 a5 c7 bd
       -0.062574625 -0.04920947 0.09909278 -0.09748364
000290 74 a9 c8 bd 74 4d 91 3d 25 b7 10 bd 50 68 f1 bd
       -0.097979456 0.07094851 -0.03533091 -0.11787474
0002a0 92 11 b3 bd ad 8e 82 bc 1d 56 07 3d 6a 68 93 3d
       -0.08743586 -0.015937174 0.03304111 0.0719765
0002b0 96 56 9f bd 89 ff dc 3d c9 7b 48 bd 77 2e 72 3b
       -0.07780187 0.10790927 -0.048946176 0.0036953965
0002c0 03 58 98 bd 2b 26 ec bd b6 57 39 3c be 46 df 3d
       -0.07438662 -0.115307175 0.011312416 0.10902165
0002d0 cf 6f a1 bd 7d 08 70 bd 47 25 59 3d 7a 66 87 bd
       -0.07882654 -0.058601845 0.053014066 -0.06611343
0002e0 90 e6 77 bd 78 7b 6e 3d 5d 23 ae 3d 2b f7 a1 bd
       -0.060522616 0.058223218 0.08502839 -0.07908472
0002f0 df bc b6 bd 3e ab 27 bd c3 fe ef 3d bc 0f d8 bd
       -0.08922743 -0.040934794 0.11718514 -0.10549876
000300 66 04 d5 bd 06 34 99 38 03 c5 31 bd ad 55 bc bd
       -0.104012296 7.305299e-05 -0.043400776 -0.09196029
000310 70 10 7a 3d 4b c1 94 3d 63 a9 18 3d 39 ff af 3d
       0.061050832 0.0726343 0.037270915 0.08593602
000320 89 0f e4 bc e5 06 e1 bd c0 6a 3c bd 38 44 a2 bd
       -0.027839439 -0.10987643 -0.046000242 -0.07923168
000330 3e 5c 79 3d 69 ee 82 bd d2 8b a1 bc d9 8c e1 bb
       0.060878985 -0.063931294 -0.019719992 -0.0068832454
000340 10 60 38 bd c8 d5 c0 3d 5b b8 13 3d 12 0f 86 bd
       -0.045013487 0.094157755 0.036064487 -0.06545843
000350 cd 8b 98 3d 27 cb 97 bd e6 7e 97 bc 8c b3 c8 3c
       0.0744854 -0.07411795 -0.018493127 0.024499677
000360 c5 72 be bd 88 ff ac bd a6 29 5e 3d 29 c8 87 bd
       -0.09299234 -0.08447176 0.054238938 -0.066299744
000370 ee 74 bf 3d 79 08 0a 3d 17 84 b9 bd 91 19 27 bd
       0.093484744 0.033699486 -0.09058397 -0.040795866
000380 9a ff 9d 3d 92 08 d3 bc 65 b3 95 3d b0 04 87 bd
       0.07714768 -0.025760923 0.073096074 -0.06592691
000390 23 41 de bd 57 2a 84 bd e5 4a e7 3d df c2 09 3d
       -0.108522676 -0.06453388 0.11293582 0.03363311
0003a0 8d c0 5f bd 76 bc dd 3d 04 80 8d bd e5 e1 bd bd
       -0.05462699 0.10826962 -0.06909183 -0.092716016
0003b0 70 4d e1 bc e7 14 75 bd 10 3e 0b bd 9f 29 c3 bd
       -0.027502745 -0.059834387 -0.033994734 -0.09529423
0003c0 89 33 de bc 67 e0 db 3d 2b 44 ed 3d eb 47 00 3e
       -0.027124183 0.10736161 0.11585268 0.12527435
0003d0 3c 68 a5 bd c1 32 b5 bd c0 45 c3 3d 13 59 64 3d
       -0.08076522 -0.08847571 0.09534788 0.05574901
0003e0 9f a6 fd bc 3e db aa bc 03 3b 50 bd dd fb a5 3d
       -0.03096324 -0.020856496 -0.050837528 0.0810468
0003f0 23 be ef bd 68 0b 88 3a 2e 24 87 bd 69 49 cc 3d
       -0.117061876 0.0010379376 -0.065986976 0.099749394

mlp1.0.bias f4 [150]
000000 32 b7 d5 3d cc 97 15 bb 83 1b b0 3d e5 5c 88 bd
       0.10435332 -0.0022826074 0.085989974 -0.06658343
000010 df 3c 29 bd 7d d1 66 3d d4 7d b0 bd 71 bf 6d 3d
       -0.041317817 0.056352127 -0.0861775 0.0580439
000020 d9 25 d0 bd 10 89 26 3d c3 13 b8 bb 78 a5 07 3d
       -0.10163469 0.040658057 -0.00561759 0.033116788
000030 37 8f 52 3d 5e de 76 3d 4b b0 8c bd 9d d3 f1 3d
       0.05140611 0.06027066 -0.06869563 0.1180794
000040 cc aa 66 bd 0b 7d 26 bc ae 24 82 3d 86 ef 33 bc
       -0.05631523 -0.0101616485 0.06354652 -0.0109824
000050 4e 01 ac bd 86 75 5f bd 42 e0 9f bd 26 10 91 3c
       -0.08398686 -0.05455544 -0.07806446 0.017707895
000060 f7 13 22 3d cb 95 b4 bd bb 29 90 3d 10 23 d8 bd
       0.03956982 -0.08817633 0.070392095 -0.10553563
000070 c7 39 90 3b 21 e7 c5 bd 30 b2 e6 3d e9 92 a8 bd
       0.004401419 -0.09663225 0.11264455 -0.08231146
000080 ce 51 e8 3d 85 9c e7 bd 11 31 f0 bd 1b 1a 9a 3c
       0.11343728 -0.113091506 -0.11728109 0.018811276
000090 d4 f6 94 bd 1d 2e f2 3d 47 dc 95 3d f5 3f db bd
       -0.07273641 0.11825202 0.07317405 -0.10705558
0000a0 c9 a4 be bd be b1 91 3d 2e 23 03 3e 1d 5d 9c 3d
       -0.09308774 0.0711398 0.12806389 0.076349474
0000b0 a4 30 d2 bd f8 aa ad bd f7 a9 b3 3d 59 39 d0 3c
       -0.10263184 -0.08479875 0.087726526 0.02541797
0000c0 78 28 ef 3c 1a 2a b8 3d 15 0e fe bd 72 49 2e bd
       0.029194102 0.08992405 -0.1240503 -0.04255051
0000d0 c5 d8 db 3a 82 b7 de bd 25 2a e7 bd 92 cd 9d 3d
       0.0016772976 -0.10874845 -0.11287335 0.07705225
0000e0 65 ca 66 bd 10 36 28 3b 4c 36 d9 3d b5 c8 a7 3d
       -0.056345362 0.002566699 0.106060594 0.08192579
0000f0 53 c9 b7 bd 07 78 d0 bd af c7 95 bd 13 2b 8e bd
       -0.089739464 -0.101791434 -0.07313477 -0.069418095
000100 85 24 fe 3d 28 77 97 bd 9e 81 ec bd c0 ae b9 bd
       0.12409309 -0.07395774 -0.1154816 -0.09066534
000110 56 83 ab bc 38 13 c6 3d ca 76 97 3d 81 b4 d7 3d
       -0.02093665 0.096716344 0.07395704 0.10532475
000120 a7 bc 36 3c d8 43 ec bd d4 73 ba bd 78 79 7d bc
       0.011153377 -0.11536378 -0.09104124 -0.015470855
000130 e3 a1 1d bd c8 25 97 bd b1 4b cc 3d d4 cb 26 3d
       -0.038484465 -0.07380253 0.099753745 0.04072173
000140 b6 34 4f bd e6 2a d6 bd 37 15 ea 3d 58 aa d9 bc
       -0.05058738 -0.10457401 0.11429828 -0.026570484
000150 bc 69 2a bd 7f 12 87 3c fd de 64 3c 63 30 ab 3d
       -0.041604742 0.016488312 0.01396918 0.083588384
000160 77 5f 76 3d a4 8f 69 3d 8a d4 83 3c f8 49 d8 bd
       0.060149636 0.057021752 0.016092557 -0.105609834
000170 0b 0c a0 3c 0d c9 b1 3d 8a 87 42 bd 1c 43 bc 3d
       0.019536993 0.086809255 -0.04749254 0.091924876
000180 00 08 f9 bd 3f 12 12 bd 41 d8 ae 3d 56 6c 93 3d
       -0.12159729 -0.035661932 0.08537341 0.07198398
000190 1b 56 59 3d 48 de f7 bd 9e 24 07 3c 5e f5 8f 3c
       0.053060632 -0.12102944 0.008248476 0.017573055
0001a0 b9 57 68 3b 0a 66 ab 3d 8c 1a ed 3d 38 92 19 3d
       0.0035452677 0.08369072 0.11577329 0.03749296
0001b0 08 bc a4 bc d0 90 98 bd 53 4e 10 bc c7 f5 aa 3c
       -0.020109192 -0.07449496 -0.008807736 0.020869149
0001c0 c3 5c 77 3d 19 d5 97 3d 77 b1 be 3b e3 5e fa bc
       0.0603912 0.07413692 0.0058194953 -0.030562824
0001d0 ab 7e 6d bd 1d e1 d7 bd ca 4f 00 be 91 cd 17 3d
       -0.057982128 -0.10540984 -0.12530437 0.037061278
0001e0 da 99 08 bd 38 80 ab 3d 4c 85 6e 3d ac 78 74 bd
       -0.03334985 0.08374065 0.05823259 -0.059685394
0001f0 36 92 46 3d 67 24 f9 bd 87 ca 75 3d 8e 83 51 bc
       0.04847928 -0.12165146 0.0600076 -0.012787713
000200 e4 b7 b7 3d 5a 65 6a 3d 72 61 8e bd 8b ce 5b bc
       0.08970621 0.057225563 -0.0695218 -0.013415943
000210 c5 fc b1 bd a2 48 69 bd 83 fc db bd 0f 19 7b 3d
       -0.0869079 -0.056954034 -0.10741522 0.061303195
000220 6a 23 f9 bc 17 8d 63 bd 53 46 fd bd 61 d6 ba bd
       -0.030412395 -0.055554476 -0.12366929 -0.09122921
000230 21 b9 84 3d f2 e4 6d bd 3c 5e f0 bc 72 f7 53 bd
       0.06480623 -0.058079667 -0.02934181 -0.051749654
000240 91 5f e1 3c 4a 58 00 3e 63 35 7f 3d 25 d7 e5 bd
       0.02751139 0.1253368 0.062306773 -0.11222676
000250 1d c8 33 3d c9 7e 8a bd
       0.043892015 -0.067624636

mlp1.2.weight f4 [100, 150]
000000 a5 0e 9c bd e4 c7 28 bc 9c 2b 0c bd 25 a5 5e bc
       -0.07619981 -0.010301564 -0.034221277 -0.013589178
000010 59 36 81 3d d9 ec ce 3c 44 ef e3 3b 25 90 bd bc
       0.06309194 0.025259422 0.006956013 -0.023140023
000020 c8 61 9d 3d d6 d5 81 bc 22 b6 2a bd 3c f5 17 3d
       0.07684666 -0.015849035 -0.0416776 0.037099108
000030 46 15 31 3d 7d 7a 88 3d 45 19 80 3d c7 b8 76 3c
       0.04323318 0.06663988 0.0625482 0.015058703
000040 df 61 93 bd 67 f2 3e bd b7 06 a2 3d 7b 44 21 bd
       -0.07196402 -0.04661789 0.07911437 -0.03937195
000050 30 37 9a bc 50 09 89 bd be df 51 bd 0a 90 79 3c
       -0.018825144 -0.06691229 -0.051238768 0.0152320955
000060 f8 ab 86 3d 67 6a 8d 3d c5 13 fd bc 64 89 72 3d
       0.06575769 0.0690506 -0.030893216 0.059213057
000070 1b dc 51 bc 6a 93 57 3d fe 9c 85 ba fc a0 9e bd
       -0.012808825 0.05263082 -0.0010193882 -0.07745549
000080 4a f7 96 3d d1 10 12 bd 1c 75 19 bd 0f 65 63 3d
       0.073713854 -0.03566057 -0.0374652 0.0555163
000090 d4 06 48 bc 3a ed 65 bc 4b 40 50 3c 4c c3 e5 bc
       -0.012208659 -0.01403361 0.012710641 -0.028047226
0000a0 05 50 42 bb aa ae 0f 3d b5 6f 3c 3d 70 ef 09 3d
       -0.0029649746 0.035078682 0.04600497 0.03367561
0000b0 e7 c2 47 bd 79 fc eb b8 49 de 11 bd d6 3c 2f bd
       -0.048769858 -0.000112527 -0.03561238 -0.042782627
0000c0 25 5c 02 bc 5c a3 98 bd d1 d5 40 bd 9c da 4a bd
       -0.007956539 -0.07453033 -0.04707891 -0.04952489
0000d0 23 82 e1 bc 8f 61 69 3a 41 35 79 bd 3a fe 93 bd
       -0.027527874 0.0008902782 -0.060841803 -0.07226224
0000e0 c4 04 8a 3c e3 39 9c bc e4 25 98 3d 73 94 03 3d
       0.016847976 -0.019070571 0.07429102 0.032123994
0000f0 03 b0 1a 3d 09 7f c1 bc ca fd 13 3d 1c bc 2b bd
       0.037765514 -0.023620145 0.036130704 -0.041927442
000100 02 3a 4f 3d 72 2f 8c bd 48 bf e1 bc 1d fa 01 3d
       0.05059243 -0.06844987 -0.02755703 0.031732667
000110 0c 44 51 3c 8c 8d 99 bd 73 97 80 bd 0a 2e 14 bd
       0.012772571 -0.07497701 -0.06278887 -0.03617672
000120 25 37 83 3a c4 1c 28 bc 2b 72 00 3d 83 03 87 bd
       0.0010010941 -0.0102607645 0.03135888 -0.06592467
000130 21 de 0f 3d 63 b6 34 3d 12 2d 9b 3d ac 71 36 bd
       0.035123948 0.04411925 0.07576956 -0.044542
000140 0a a1 2a bd 8e 6d a0 3d df 5d 96 3c c7 70 5c 3d
       -0.041657485 0.07833396 0.018355308 0.05381849
000150 53 c8 8e bc 84 03 ba bb 23 e3 e7 3c c1 ea 90 bd
       -0.017429506 -0.0056766886 0.02830655 -0.07076026
000160 ac 28 b7 3a a2 bd a7 3b 6a 8d 93 3d b2 b8 85 bd
       0.0013973913 0.0051190415 0.07204707 -0.065293685
000170 9a 99 84 3d 28 de 67 bb b8 58 45 bd b9 a8 02 3c
       0.0647461 -0.0035380218 -0.048180312 0.007974797
000180 33 fa 48 3b f0 5d 20 bd ec 65 2b 3d cb 93 46 3d
       0.0030666708 -0.039152086 0.041845247 0.04848079
000190 12 90 8f bd eb 49 11 3c f8 e7 1f 3d af 1b d6 bb
       -0.07009901 0.008867721 0.039039582 -0.006534062
0001a0 c0 e5 5f bb cf c8 6d bd 48 37 0b bc 27 6e 9b bd
       -0.0034164041 -0.058052834 -0.008497067 -0.07589369
0001b0 c7 a4 99 bd 2a c4 29 3c 7d f3 78 3d 01 9e 8c 3d
       -0.07502132 0.010361711 0.060779084 0.06866074
0001c0 96 e1 16 bd b1 55 81 bb a1 db 6e bd bc 2d a6 bd
       -0.03683623 -0.003946983 -0.058314923 -0.08114192
0001d0 74 47 6d 3d 66 86 bc 3c 3b 5a 34 3c 64 ed 2c 3d
       0.05792947 0.023013305 0.011007841 0.04221858
0001e0 b1 ec 48 bc f5 3e a2 bc 84 f5 99 3d 59 b9 27 3d
       -0.012263463 -0.01980541 0.075175315 0.040948246
0001f0 13 1b 08 bc 7f d8 8d 3d 8a d0 39 bd 8d ba 9b bd
       -0.008307236 0.06926059 -0.045364894 -0.07603941
000200 d4 b1 04 3d 84 63 68 3c f4 87 87 bd 4a b7 f7 3c
       0.032396153 0.014183883 -0.06617728 0.030238766
000210 4f 36 dc bc fb f5 9f bd 0d c8 89 bd 76 32 64 3d
       -0.026881365 -0.07810589 -0.0672761 0.055712186
000220 f6 71 4d bc 54 20 9a bc ee ed 07 bd 12 7b 8e bd
       -0.012539377 -0.018814243 -0.03318589 -0.069570675
000230 6b eb c6 bc a2 42 6e bc 32 48 a1 bd dc 4c 33 3d
       -0.024282178 -0.014542254 -0.07875098 0.04377447
000240 55 36 51 3d d2 25 55 3d 40 4e bb 3b 8c 11 41 3d
       0.051077206 0.05203802 0.0057161152 0.047135875
000250 d6 d3 8c 3d c2 1a 21 3d 6b 42 93 bd 48 d5 09 3c
       0.06876342 0.03933216 -0.071904026 0.008412667
000260 da 6f 9d 3d be a0 29 3d 0c 2c 05 bd 95 1c 92 3c
       0.076873496 0.04141306 -0.03251271 0.017835895
000270 f6 4b 99 3d cc cb 7e 3d b2 dd 0d 3c 26 ef 7a 3d
       0.074851915 0.062206075 0.008658813 0.061263226
000280 58 11 13 bd 5b 6f 9e 3d 4a d7 55 bd d7 53 96 3c
       -0.035905212 0.07736083 -0.05220727 0.018350525
000290 fc 30 9b 3d b7 91 8f 3d 7e b0 60 3d 1c 3a 81 3d
       0.075777024 0.07010215 0.054855816 0.063099116
0002a0 b0 8f 53 bd a6 de 10 bd 7b 45 60 3d fe ab b8 3b
       -0.051650703 -0.035368584 0.05475376 0.0056357374
0002b0 a1 52 22 3d 6f 14 78 bd 63 ae 5d 3d 15 1d 63 3d
       0.039629582 -0.060566362 0.054121386 0.055447657
0002c0 8e 3a 64 3d 59 1a 6c bd cc 33 b4 bc 4a 2c 9b 3d
       0.055719905 -0.057642315 -0.021997355 0.07576807
0002d0 c7 ec f9 bc a7 00 2b bd 58 2c 1d bd 15 23 a0 3c
       -0.030508412 -0.04174867 -0.038372368 0.019547978
0002e0 12 18 57 3d 65 fa ce 3c ef 39 49 bd 99 65 49 3d
       0.05251319 0.025265882 -0.049127515 0.049169157
0002f0 96 97 7b 3d 1a 3a 80 3d 9a 8b 3d 3d 63 8b 80 3b
       0.06142386 0.06261082 0.046275713 0.003922866
000300 e5 c3 52 3d 13 24 53 bc 17 64 9d bd 44 dd 53 3c
       0.05145635 -0.012887019 -0.07685106 0.012931172
000310 96 09 61 3d 0f 05 86 3d 53 13 00 3d 1c 16 95 3d
       0.054940782 0.065439336 0.03126843 0.07279608
000320 c0 72 b9 bc 62 df 70 bc e7 ef 3a 3c cf ff 20 3d
       -0.022637725 -0.014701696 0.011409736 0.039306458
000330 8e de ab 3c 46 7c 13 bc 93 3c c5 bb 53 ff 41 3c
       0.020980146 -0.009001797 -0.006019184 0.011840659
000340 26 8c 57 bd 21 f6 01 bc 44 ca 4a bd c3 48 a0 bd
       -0.05262389 -0.007932217 -0.0495093 -0.07826378
000350 2b 30 87 3c d8 15 d4 3b 1d 64 9a 3d 7b cd 97 3d
       0.01650246 0.0064723305 0.07538626 0.07412239
000360 18 00 a2 bd 1a de 4c 3a 23 99 99 3d 31 97 87 3d
       -0.07910174 0.0007815078 0.07499912 0.06620634
000370 d6 a5 83 3d 6b c9 4f bd 7b ad ef 3c 67 6d 62 3c
       0.06428115 -0.050729197 0.029257527 0.013820029
000380 62 3a 79 bd 03 6d 98 3d d5 1f 08 3d f8 2c 99 bc
       -0.060846694 0.07442667 0.033233482 -0.0186982
000390 a6 c1 37 3d db 9f 83 bd ae b4 5d 3d a9 0c 46 bd
       0.044862412 -0.064269744 0.054127388 -0.048351917
0003a0 77 34 85 3d 57 63 87 3d de a5 5f bd 4b de f3 bb
       0.065041475 0.066107444 -0.054601543 -0.007442271
0003b0 fd df b9 3c 95 17 8b bb 80 e0 8f 3d 96 08 88 bd
       0.022689814 -0.0042447546 0.07025242 -0.06642263
0003c0 98 8d d9 3c 14 00 8f bd 25 22 92 3c 52 a4 e6 3c
       0.026556775 -0.06982437 0.017838547 0.028154526
0003d0 24 ab 7d bd 49 62 a5 bd 98 14 03 3d aa 24 9d 3c
       -0.06193079 -0.08075387 0.03200206 0.019182522
0003e0 54 78 a1 3b 5f e1 83 3d 28 30 a2 bb 3d f3 3f 3d
       0.0049276743 0.064394705 -0.0049495883 0.04686283
0003f0 aa 70 90 bc 92 28 df 3c 8f 34 b4 bd bc 70 93 bc
       -0.017631847 0.027241025 -0.08799087 -0.017998092

mlp1.2.bias f4 [100]
000000 70 9d 16 bc 2e 2f e8 bb 03 5e 50 bd 71 b7 d9 bc
       -0.009192809 -0.0070857024 -0.050870907 -0.02657673
000010 34 a0 92 3d 2f eb 48 bd ec 10 a0 3d 64 a2 25 bd
       0.071594626 -0.049052414 0.078157276 -0.04043807
000020 74 93 a0 3d 9f a2 d2 3c f2 8e 97 3d 51 f1 98 3d
       0.078406245 0.02571231 0.074003115 0.074679025
000030 a0 32 0f bd 59 1b 2b 3d 1b d6 a9 3d ee db 4f bd
       -0.03496039 0.041774128 0.082927905 -0.05074685
000040 15 ab 9a 3d 38 67 3d 3d d5 a4 15 3a bc a6 81 3d
       0.075521626 0.046241015 0.0005708461 0.0633063
000050 e0 49 5e 3c 0a 9e 95 3d 53 e7 72 bd cf c3 74 ba
       0.013567418 0.07305534 -0.05930264 -0.0009337039
000060 12 cc 84 bd 8b 66 9d 3d a6 93 d5 bc 23 7a a8 bc
       -0.06484236 0.07685574 -0.02607138 -0.020566052
000070 7a 81 05 3c f5 c0 52 3d be c2 69 bc a7 7f 88 bd
       0.008148545 0.05145355 -0.014267622 -0.06664973
000080 95 6d 8c 3d 2b fb 38 3c 85 cb 49 3d 83 14 97 3d
       0.068568386 0.011290352 0.049266357 0.07376959
000090 c9 be b3 3b 91 78 da 3c 79 6b e1 bb a9 d0 05 3d
       0.00548539 0.026668819 -0.006879267 0.032669697
0000a0 7d 51 55 3d 67 53 1a 3d 3c 06 7a 3d c4 a2 91 3d
       0.052079666 0.037677195 0.0610411 0.07111123
0000b0 80 40 f7 3a 3c da 82 3d 8c a2 5e 3d 50 cb 02 3c
       0.0018863827 0.06389281 0.054354236 0.007983044
0000c0 06 18 ea 3c 29 6d 91 bd 53 79 2a b9 81 6e 88 3d
       0.028575908 -0.07100899 -0.0001625766 0.06661702
0000d0 d2 7c a9 3d c3 22 48 bd dd ff 40 bc cc 6a 42 bb
       0.08275761 -0.048861276 -0.011779753 -0.0029665707
0000e0 1d 71 d0 ba 35 ac b8 3c 0d 07 1f 3c 3d 3e b5 bc
       -0.0015902851 0.022543052 0.009706271 -0.022124404
0000f0 e8 cb 42 bd f6 0a 1c 3d 49 f2 78 bd be f4 f3 3c
       -0.04755774 0.03809639 -0.060777936 0.029779788
000100 34 36 4c 3c 14 f7 a2 3d 9b 6d 38 bc 90 9b 14 bc
       0.012464095 0.07957283 -0.011256601 -0.009070292
000110 91 ca 49 bd 50 cf 73 bd d6 3a 61 bd b6 21 84 3d
       -0.049265448 -0.05952388 -0.05498775 0.06451742
000120 9f f7 77 3c 25 02 a7 3b 50 32 34 3c 36 6e ad 3c
       0.015134721 0.005096691 0.010998324 0.021170717
000130 07 22 3f 3c 5e f1 79 bd 7b 40 91 3b 72 97 8d bd
       0.011665828 -0.0610212 0.0044327355 -0.069136515
000140 1b b7 0e bd 43 da 5d bd b0 7d 98 3c 6a cc 1d bd
       -0.03484259 -0.05416323 0.01861462 -0.038525023
000150 46 23 6d 3c 28 53 82 bd 3d 13 2b 3d 41 c6 25 3d
       0.014473742 -0.06363517 0.041766394 0.040472273
000160 de 21 a0 bd 00 20 0b bd d9 de 31 3b 61 68 57 3d
       -0.0781896 -0.033966064 0.0027140884 0.052589778
000170 65 34 e4 bc 36 69 1a 3d 4d 4f 1a 3b db d8 04 3d
       -0.027857015 0.037697993 0.0023545802 0.032433372
000180 c6 8e 80 bd 62 fb 59 3d 1f da 9d bd 4a 19 35 bb
       -0.06277232 0.053218253 -0.07707619 -0.0027633482

mlp2.0.weight f4 [100, 100]
000000 62 d7 c6 bd 8a fd 04 bd 2f 13 9c 3d 9e 48 af 3d
       -0.0970905 -0.032468356 0.076208465 0.085587725
000010 5d ab 31 3d 11 bf 4c 3d 44 c6 4f 3d 48 28 24 bd
       0.043376315 0.049986903 0.05072619 -0.040077478
000020 6d 2b bd bd 66 cb 58 3c 58 81 dc 3c 94 62 51 3d
       -0.092367984 0.013232088 0.026917145 0.051119402
000030 ed 4d ac 3d 3c 02 7a bd 6d d1 bb bd 29 6a cc bc
       0.08413301 -0.061037287 -0.09170804 -0.024952965
000040 86 af a3 3d ef 40 c6 bd e7 2f 02 3d 9a a8 0d bd
       0.07992463 -0.09680354 0.031783964 -0.03458462
000050 8a bc 29 bd d0 b2 ce bc 19 82 65 3d b8 4f 36 bc
       -0.04143957 -0.025231749 0.056032274 -0.011127405
000060 f6 65 ec bc a8 51 9c 3c e8 64 49 bd e3 9b 60 3d
       -0.028857213 0.019081905 -0.049168497 0.054836165
000070 cf fc c4 3d a4 69 31 bd f7 6b 47 bd b0 31 65 bd
       0.09618532 -0.043313637 -0.048686948 -0.05595559
000080 f5 ad 3f bd 0d 51 a8 3d 78 b0 97 bd 9f 20 ba bc
       -0.046796758 0.08218584 -0.074067056 -0.022720633
000090 2b b3 5f 3c 92 8e 84 3d cd 5d 3c bc b6 bc ad bd
       0.013653557 0.06472506 -0.011496973 -0.084832594
0000a0 53 62 67 3d f3 17 96 bd bf e4 ce 3b a5 09 5d 3d
       0.056490254 -0.07328787 0.0063138898 0.053964276
0000b0 2b 8d ca 3d e1 d4 ac bc f5 6b 50 3c 50 3f 31 bd
       0.09890207 -0.021097602 0.012721051 -0.04327327
0000c0 d0 66 03 bd 2a d2 d3 bc 75 ab b2 bd 06 8a 76 bd
       -0.03208047 -0.02585705 -0.08724109 -0.060190223
0000d0 7a 3c 9a 3d 26 54 b8 bd 53 33 91 3d af a0 75 bd
       0.07531066 -0.09000425 0.070898674 -0.059967693
0000e0 8c 48 4a bd 01 a0 16 3d cb d6 9e bd 5b e7 c5 3d
       -0.049385592 0.036773685 -0.07755812 0.09663268
0000f0 05 a7 b8 3d 60 84 c9 bd 23 32 18 bd 90 de 02 3c
       0.090162314 -0.09839702 -0.03715719 0.007987633
000100 a2 5d cf 3c 0b 28 5a bc 5d a2 4d 3a 63 03 82 bd
       0.025313202 -0.013315211 0.00078443234 -0.06348302
000110 b4 a3 8b 3b eb 69 5e 3c a6 c8 46 3d eb ed 86 3d
       0.0042614583 0.0135750575 0.048531197 0.06588348
000120 8e 35 57 bd 89 f2 b0 3d e0 b7 b9 3b d9 57 85 bd
       -0.052541308 0.0864001 0.0056676716 -0.06510896
000130 15 9f b0 bc f1 fc 1d 3d 5b dc 27 bd 19 8c b7 3d
       -0.021560231 0.0385713 -0.04098163 0.089622684
000140 91 8d c9 3d 85 cf c0 3c 43 d4 fd 3c c7 7c 53 3d
       0.09841455 0.023536453 0.030985003 0.05163267
000150 a0 f1 c5 bd 39 1b b5 3c 8a 3c 2e 3d ff 3e 29 3c
       -0.09665227 0.022107707 0.042538203 0.010329961
000160 e7 ec bb 3d 21 16 b3 bd f5 9e 84 bd b2 b7 98 bb
       0.09176045 -0.08744455 -0.06475631 -0.00466057
000170 8f 56 9a 3d 67 7b 58 bd 66 9a a8 3d be 60 8a 3d
       0.07536041 -0.05285206 0.08232574 0.06756733
000180 b5 29 7c 3c a6 3c 89 3d b2 2a 59 bd 36 4c f1 bc
       0.015390803 0.06701021 -0.053019233 -0.029455286
000190 02 d4 b1 bd f2 97 61 3c 8b 6a 5e bd e7 9e b8 3c
       -0.086830154 0.013769137 -0.054300826 0.022536708
0001a0 0b 54 fc bc f9 11 a3 3d 14 28 c4 bd a5 64 a3 3d
       -0.030801794 0.079624124 -0.09577957 0.07978181
0001b0 d2 b2 0a 3d c5 c1 b2 bd 0b ed a0 bd ff be b3 3d
       0.033861943 -0.08728365 -0.07857712 0.08776664
0001c0 ef 49 42 3c eb 8e 8c 3d 02 c0 1c 3d 21 2b 98 3d
       0.011858447 0.06863197 0.03826905 0.07430101
0001d0 44 6a 81 3d 03 e3 59 3d 9c 48 a6 3d 18 cc b9 bc
       0.06319097 0.05319501 0.08119318 -0.022680327
0001e0 12 cd 3d 3d a8 c2 83 3d 92 97 e0 bc bc cc 9d bd
       0.04633815 0.06433612 -0.027416024 -0.077050656
0001f0 3b 70 a9 bd de 48 5d bd 17 26 87 bd 4b 93 c8 3d
       -0.082733594 -0.05402457 -0.06599062 0.09793719
000200 1a 11 b3 3a fc d9 05 bd ca 31 ab bd a7 d9 84 bd
       0.0013661713 -0.03267859 -0.08359106 -0.064868264
000210 47 cf 1b 3d 13 b6 81 3d e5 cf 86 3d 40 90 a1 bc
       0.038039472 0.06333556 0.065826215 -0.019722104
000220 17 30 f8 3c c6 5f 4e 3d 97 79 5e bd 95 02 3f 3d
       0.030296369 0.050384305 -0.054315176 0.04663332
000230 3b 54 7b bd 7e aa 8c 3c 7f 2b 4e 3d 2e 0d 12 3c
       -0.061359625 0.01717114 0.05033445 0.008914275
000240 20 60 a7 3c b6 88 c3 3d 0e e9 b7 bd 2b 76 20 bd
       0.020431578 0.0954756 -0.089799985 -0.039175194
000250 fb 5a 67 3c a9 da 96 bd 74 7c 57 bd f4 ee 24 3d
       0.0141208125 -0.07365925 -0.052608922 0.040266946
000260 ae 70 c1 3d 9a 66 10 3d d2 44 b8 bc b4 b5 3e bd
       0.0944532 0.0352541 -0.022493754 -0.046560004
000270 42 78 8c 3d e2 cb 10 bd 32 21 74 3d 69 dd c1 3d
       0.06858875 -0.035350688 0.05960197 0.09466059
000280 2f 95 82 bd 19 a2 6d bb 66 3c 89 bc 73 b0 c1 bd
       -0.06376111 -0.0036259948 -0.016752433 -0.09457483
000290 80 47 fb 3c 10 e1 c2 bd 9e 75 9f 3d e3 51 c9 3d
       0.030673742 -0.095155835 0.077861056 0.09830072
0002a0 cc 50 b0 3d 90 f0 87 bd d6 bf d2 3c 79 28 3b 3c
       0.08609161 -0.066376805 0.02572624 0.011423224
0002b0 82 bc b7 3d d1 c0 38 3d fa 52 c0 3c 3b 03 da bc
       0.08971502 0.04510576 0.023477066 -0.026612869
0002c0 39 c9 ce 3b 20 87 a6 3d 49 18 84 bd b3 dc ab 3d
       0.0063106087 0.08131242 -0.064499445 0.083917044
0002d0 ce 59 2b bd 37 da a3 bd d3 dd aa 3d dc ed 03 bd
       -0.04183369 -0.080006056 0.08343091 -0.032209262
0002e0 29 56 9d bd e6 74 88 bc 74 b9 a9 3d 1c 06 87 bd
       -0.07682449 -0.016657304 0.082873255 -0.06592962
0002f0 ef 8e bf bc df 2a 5c 3d 60 7f 5a bd be 8e 39 bd
       -0.023383586 0.053751823 -0.05334413 -0.045302145
000300 ce 13 b6 3d 2a 32 54 bd 1d 4e af 3b f0 d5 b1 3d
       0.08890496 -0.051805653 0.005349888 0.086833835
000310 93 8f 2e 3c ad 4d 82 3d e6 b5 90 bd 22 a5 17 3d
       0.010654348 0.06362472 -0.070659444 0.037022717
000320 c5 43 c8 3d 90 38 23 3d f6 c6 a3 bd 59 18 0c 3d
       0.09778551 0.039848864 -0.07996933 0.034202907
000330 eb a8 c3 bd 36 47 c5 bd d8 10 2c bd bf b5 87 3c
       -0.09553703 -0.09632723 -0.04200825 0.016566155
000340 42 61 b9 bd ee e2 a1 bd 4e f1 38 bd b1 11 ba bd
       -0.090517536 -0.079046115 -0.045152 -0.090854056
000350 7c dd a0 bd 14 8d e9 bc b1 71 9f bd cc d4 89 bb
       -0.07854745 -0.028509654 -0.07785357 -0.0042062756
000360 1f 23 69 3d f2 0c 74 3c e6 1d a5 bd 33 51 9d 3d
       0.05691826 0.0148956645 -0.08062343 0.07681503
000370 a9 31 0c 3d 18 4e 37 bd 58 77 af bd 43 c7 ab bd
       0.034227047 -0.04475221 -0.08567685 -0.083876155
000380 eb 59 1c 3c 6b 17 31 3d e4 f1 05 3d b6 9d a7 3d
       0.0095429225 0.043235224 0.032701388 0.08184378
000390 e0 67 4c bd 75 e4 b9 bd 43 a5 39 bd 21 5e 96 bd
       -0.04990375 -0.09076778 -0.04532362 -0.073421724
0003a0 ed ce a6 bd 98 22 ba 3c f3 30 fa bc 0c 5e 9f 3d
       -0.08144937 0.022721574 -0.030540919 0.0778161
0003b0 d2 2f c1 bd 8f fe 41 bc b7 eb 99 bd fc ca 36 3d
       -0.09432949 -0.011840477 -0.07515662 0.044627175
0003c0 00 6b c1 3c 52 36 f5 ba 09 8f 46 3c 1b d3 75 bd
       0.023610592 -0.0018708205 0.012119063 -0.06001578
0003d0 21 5a 9f 3d 74 ab bc bd 2c 2b c8 bb a6 a0 74 3d
       0.077808626 -0.092123896 -0.006108662 0.05972352
0003e0 df 77 0c bd 55 ac d6 3c d2 98 57 bd 7c 06 bd 3d
       -0.034294005 0.026205221 -0.052635975 0.092297524
0003f0 a6 ef 5c bc 0e 62 01 bd 72 39 1a 3c 3a 72 89 bd
       -0.013484871 -0.031587653 0.00941311 -0.0671124

mlp2.0.bias f4 [100]
000000 1d 9d 9d bd 9b 67 2b 3d 5b e9 84 3b 7c fb 74 3d
       -0.076959826 0.041846853 0.0040561385 0.059810147
000010 da e8 c6 bc 7f b9 6d bc 44 ae 9e bc d5 21 4f 3c
       -0.024280954 -0.014509558 -0.019370206 0.0126423435
000020 e7 5a 78 bd ba 9e 84 bc 31 5f 12 bc af cf 24 3c
       -0.060633566 -0.016188968 -0.008933828 0.010059281
000030 68 52 87 3d 20 ef 0e bd 50 0c f6 bc 6c 8d bb 3d
       0.066075146 -0.034896016 -0.030035168 0.091578335
000040 a0 44 b7 3b 9b 33 9a bc e0 56 9a 3b b2 e8 95 bd
       0.0055928975 -0.018823436 0.0047100633 -0.07319774
000050 05 85 ad bd a9 b9 c1 3d e8 be 9b bc ea d8 b0 bd
       -0.08472637 0.0945924 -0.01901193 -0.08635123
000060 66 63 96 3d 90 a1 11 bd 87 50 83 bd 1f 35 c6 bd
       0.073431775 -0.03555447 -0.06411844 -0.09678101
000070 11 6b 22 3c 4f 59 3f 3d 15 70 c5 3c cd b9 94 bd
       0.009913222 0.04671603 0.024101296 -0.07262001
000080 55 4e 82 bd d3 06 98 3d 91 df f4 3b bc 9a 00 3d
       -0.06362597 0.074231766 0.0074729403 0.031397566
000090 06 80 be bc fe 6f ed 3b dd dc 2a bc 1e f5 42 3d
       -0.023254406 0.0072460165 -0.0104286345 0.047597043
0000a0 8c ea 97 3d 94 a2 a5 bd 42 33 8e 3d 95 74 6c 3d
       0.07417783 -0.0808765 0.069433704 0.05772837
0000b0 a4 ec d5 3c f1 5a 40 3d 00 fc 11 3d 49 64 47 3d
       0.026113816 0.04696173 0.035640717 0.048679624
0000c0 cf ec c9 bd 93 df 1c bd b5 82 d1 3d 1c 4e 25 3d
       -0.09859621 -0.038299154 0.102300085 0.040357694
0000d0 bf 98 93 bd 2f 34 b0 bd ce cf 51 bc 4d 3c a9 bd
       -0.072068684 -0.08603703 -0.012805892 -0.082634546
0000e0 9d fe 6c 3c 84 0f b4 bd ae c9 a8 bd 6c 78 34 3b
       0.014465001 -0.08792022 -0.08241592 0.0027537597
0000f0 27 f9 89 bd fd f9 d5 3d 53 32 a1 bc 4f 12 03 3d
       -0.06736975 0.10448072 -0.019677317 0.031999882
000100 a6 c7 12 bd 60 1f 95 bd 34 ca 02 bd 24 02 7d ba
       -0.03583493 -0.07281375 -0.031931117 -0.0009651503
000110 71 2f 12 3d 4e d0 a1 3d 6d 18 78 bc 9a 0c ac 3d
       0.035689775 0.07901059 -0.015142542 0.08400841
000120 a3 de 05 bb 1a 03 b3 bc 00 fa 43 bd a6 07 a7 bd
       -0.0020426891 -0.021852065 -0.04784584 -0.08155756
000130 58 ed 90 bc 24 ec c2 bd c1 75 ba bd 5e 1c 3d bd
       -0.0176913 -0.095176965 -0.09104491 -0.04616963
000140 5a d0 3b 3d 82 ca 94 3d 18 78 a6 3b e3 d3 aa bd
       0.045852996 0.07265188 0.0050802343 -0.083411954
000150 a7 15 8e 3d 3f 08 bc bd 8d 0a 02 bd 8d 71 40 3d
       0.069377236 -0.0918126 -0.031748343 0.04698329
000160 61 85 a3 bc c2 c5 40 3c 16 fa 46 bd 94 23 1c bd
       -0.019961061 0.011765899 -0.048578344 -0.038119867
000170 14 64 35 bd cf 63 0f 3d 64 ca b3 3d 57 71 3a bc
       -0.044284895 0.035007294 0.08778837 -0.011379561
000180 92 6a ad bc ff e6 b9 bd 5b 1d a2 3d d3 66 1f bd
       -0.02116898 -0.09077262 0.07915755 -0.03891642

mlp2.2.weight f4 [50, 100]
000000 e3 f7 c5 bc f0 43 28 3d 0f cf 6b 3c 3e 23 1a bd
       -0.024166053 0.041080415 0.014392628 -0.037631266
000010 09 60 95 bd 29 70 77 bd 9e bb 16 3d 8b 5c b4 bc
       -0.07293708 -0.0604097 0.03680002 -0.022016784
000020 42 8c 04 3d 4a 54 ac 3d 0e fe 4e bd d6 8f 80 3d
       0.032360323 0.08414514 -0.050535254 0.062774345
000030 d4 7c 15 bd cb e0 b3 3c c0 a7 04 bc f8 45 88 3c
       -0.036496 0.021957776 -0.008096635 0.016634926
000040 1c 95 d0 3c f2 51 09 bd d2 d5 94 bd 3a 08 5a bd
       0.025461726 -0.033525415 -0.072673455 -0.0532305
000050 fc b0 8c 3d 9f 62 6b 3d 15 b1 f7 3c 02 6c 1e bc
       0.068696946 0.0574671 0.030235806 -0.009669306
000060 e3 f9 b9 3d 09 28 16 3d 20 86 ae bd 0b e0 b0 3d
       0.09080865 0.036659274 -0.08521676 0.08636483
000070 cb a0 8d bd 2c 93 1a bc 4d ed 4b 3d dd a9 54 bd
       -0.069154344 -0.009434503 0.049786855 -0.051919807
000080 17 0f ac bc 0b 43 4c bd e5 af c1 bd 96 95 e2 3c
       -0.02100329 -0.049868625 -0.09457377 0.027659219
000090 bd fd ca bd 37 32 3b bd 28 be b4 bd c2 9b 23 3c
       -0.09911678 -0.045702185 -0.08825332 0.009985866
0000a0 67 f4 55 3d 12 06 5e 3c 85 fd 7a 3c f9 09 84 bc
       0.052235033 0.013551252 0.015319233 -0.016118037
0000b0 23 76 a0 bd 2f 18 97 3d 7c 79 a8 bd b2 1d 80 3c
       -0.07835033 0.073776595 -0.08226296 0.01563916
0000c0 eb e9 61 bd bd fd 89 bd 59 40 b9 3d 2d 49 cd 3d
       -0.055154722 -0.0673785 0.090454765 0.10023723
0000d0 ad b5 56 3c 7e 14 cb 3d f0 63 8d bd 2a 04 a6 bd
       0.013104838 0.09916018 -0.06903827 -0.08106263
0000e0 06 22 7d bd 06 3a ab 3d ee 78 9c bd 26 88 3b bd
       -0.061800025 0.083606765 -0.07640253 -0.04578414
0000f0 f0 3c a9 3d fe 58 b6 bd 37 b2 14 bb c9 a7 92 3b
       0.08263576 -0.08903693 -0.0022689232 0.004475568
000100 90 bc 91 3d 59 1f a7 3d 6c 36 19 3d fd 80 08 bd
       0.071160436 0.08160276 0.037405416 -0.033326138
000110 e1 a1 87 bd 1a 63 5f 3d 6b 8f 5c bd 11 37 ad bd
       -0.06622673 0.05453787 -0.05384771 -0.08457769
000120 d3 71 82 bc 9f b0 1c 3d 8d b5 bf bd d4 6d cb 3c
       -0.015923416 0.038254377 -0.093608 0.024832644
000130 de 5f 8a 3d a5 e1 c4 bd ad 33 a8 bc 59 fb b1 bd
       0.067565665 -0.09613351 -0.020532453 -0.08690519
000140 0e 69 90 bd 66 35 84 3c 5d 47 af bd 33 7c 57 3d
       -0.070512876 0.016138744 -0.08558533 0.05260868
000150 89 b5 a5 3d 8c ef 9f 3d 29 f9 74 bd 5a d6 33 bd
       0.08091266 0.07809362 -0.05980793 -0.043905593
000160 0e 0d 5a bc 0b 39 b9 bd f0 bc b8 bd 85 62 32 3d
       -0.013308777 -0.09044083 -0.09020412 0.043550987
000170 2e 62 da bc d5 c3 a5 bd cc 2f be bd 96 54 15 bc
       -0.026658144 -0.080939926 -0.0928646 -0.009114405
000180 5a fa a6 3c 24 7e 0b 3d 3b 9c ed 3c ae ff 8d bc
       0.020383049 0.034055844 0.02900516 -0.017333832
000190 69 a5 54 bd 64 a3 bd 3c cf 6e 92 bd 4a 7e 11 3d
       -0.05191556 0.0231492 -0.07150041 0.03552083
0001a0 c1 65 5a bd 81 09 2d bb 0d c4 37 3d c3 7d fa 3c
       -0.053319696 -0.002640337 0.044864703 0.030577546
0001b0 7b 2e a1 bd bd 3c c3 3a 21 c3 6e bd e5 7d cc 3b
       -0.078701936 0.0014895421 -0.05829156 0.0062405937
0001c0 89 0e 21 3d 3f 0f 99 3d 40 bd 64 bc e9 44 99 bd
       0.039320502 0.07473611 -0.013961136 -0.07483847
0001d0 fa 6c 3d 3d 59 8f ed bc c6 a0 0f bd 6a 5b cc bd
       0.046246506 -0.028999018 -0.035065435 -0.09978373
0001e0 69 e8 cb bc 3c 55 b9 3d bc c9 9e bd 67 cb a3 bd
       -0.024891095 0.0904946 -0.077533215 -0.0799778
0001f0 2b b9 09 3d cf 27 d6 3c 25 06 be 3d ae 6a 50 bd
       0.033623856 0.02614203 0.09278516 -0.050882988
000200 7e 8d c2 bb 58 83 9d 3d 49 d4 55 3a 83 6e 62 bd
       -0.0059372773 0.076910675 0.0008156938 -0.055281173
000210 08 56 a8 bc b1 b6 aa bd 3a 40 52 bd 38 7f 57 3d
       -0.020548835 -0.08335627 -0.051330782 0.05261156
000220 d7 a1 93 bd 6d 3b d6 3c 3d 5a 4d 3d aa 9f 53 bc
       -0.07208603 0.026151383 0.050134886 -0.012916485
000230 b7 e3 98 3c ff 1b 05 bd 73 17 81 3d e1 0a ba bc
       0.01866327 -0.032497402 0.06303301 -0.022710266
000240 18 fb ce bd 0d f8 bd 3d 55 78 32 3d 7a 6b 66 3d
       -0.10106486 0.092758276 0.04357179 0.05625484
000250 c8 0b ac bd aa eb 15 3d 01 92 b3 3d 06 88 e4 bb
       -0.084006846 0.0366017 0.087680824 -0.006974223
000260 0e 4d 66 3b 06 f1 49 39 88 ea c7 bd 9e 72 cd bc
       0.0035141143 0.00019258642 -0.0976153 -0.025079068
000270 f0 13 2d bd e4 20 b2 3d a8 70 83 bd 9f 42 98 3d
       -0.042255342 0.0869768 -0.06417972 0.07434582
000280 19 56 b5 3d fb 70 19 3c 15 97 a2 bd c3 fb b8 3c
       0.088543124 0.009365316 -0.07938973 0.022580987
000290 a1 1b 7f 3c 20 a9 8e bd 24 11 f4 bc cb 53 8b 3d
       0.015570552 -0.06965852 -0.02979333 0.068030916
0002a0 2f c7 a3 3b f2 38 75 bd 2f 38 88 3d a0 a3 6b 3d
       0.00499811 -0.05986876 0.06651341 0.05752909
0002b0 27 b7 af bd 4b 09 87 3d aa 96 c4 bd 4f aa 10 bd
       -0.085798554 0.06593569 -0.095990494 -0.03531867
0002c0 16 af 3b 3d d8 41 9a bd 88 2a 9e 3b fd 82 91 bd
       0.04582127 -0.0753209 0.0048268475 -0.07105062
0002d0 bf c5 a0 bd 38 ba b6 bc 63 f0 c5 3d 8f a6 29 3d
       -0.07850217 -0.022305593 0.09664991 0.04141861
0002e0 7a 67 29 bd 0e 11 b0 3d 5b f2 f8 bc da 3a 88 3b
       -0.04135845 0.08597003 -0.030389002 0.0041574063
0002f0 64 c0 c1 bd be 06 af bc c3 83 71 3d 57 8c 0e 3d
       -0.09460524 -0.02136552 0.05896355 0.034801807
000300 a3 a1 b3 3d a5 ec 85 3d f6 4e a8 3d 87 44 61 3b
       0.08771064 0.06539277 0.082181856 0.003437312
000310 53 53 61 3d f3 62 ae 3c 9a 9c c8 bd 7c 58 f9 bc
       0.055011105 0.021287417 -0.097954944 -0.0304377
000320 26 66 c4 bd 91 b2 91 bd 52 07 b6 bd 1c 52 b3 bd
       -0.09589796 -0.07114137 -0.08888115 -0.087558955
000330 d7 eb 94 bd c7 7a bd bd cf 10 83 bd 46 c2 17 3d
       -0.072715454 -0.092519335 -0.0639969 0.037050508
000340 d8 5b 5f 3c 6a fd a6 3d 1c cd 83 bd 16 f8 50 3d
       0.013632737 0.08153804 -0.06435606 0.051017843
000350 92 4b 86 bd 1b c4 a5 bd f4 94 f0 bc 9b a9 a5 bd
       -0.06557383 -0.08094045 -0.029367901 -0.0808899
000360 58 7f 46 3d a2 44 bd 3c 3b ac 9a 3d 5f b4 af 3d
       0.04846129 0.023104016 0.075523816 0.08579325
000370 51 a6 11 3d 2c 12 a6 3d 25 46 b5 bd 1c cf 08 3a
       0.035559002 0.08108935 -0.0885127 0.000521885
000380 e8 3d c1 bc 59 ba 8a bd ca dc aa bc 9a fa b4 bd
       -0.02358909 -0.06773824 -0.020857234 -0.08836861
000390 3f 43 b6 bd 28 8a a5 3d e8 56 ce bd 01 17 bf 3d
       -0.08899545 0.08082992 -0.1007517 0.093305595
0003a0 30 c4 21 bd f2 1a d3 3c d9 c4 83 3d 18 6b 76 3d
       -0.03949374 0.025769684 0.0643403 0.060160726
0003b0 eb 3c 04 bd 11 77 3d bc 8f 31 46 bd 15 b2 bf 3d
       -0.03228466 -0.011564032 -0.048387107 0.09360138
0003c0 f4 05 5b 3d 23 ce 80 3d 55 98 cc bc e6 81 8e bd
       0.053472474 0.062893175 -0.024974981 -0.0695837
0003d0 94 87 b0 3b 36 db 28 3d e3 2e 0c bd d8 99 ed 3c
       0.005387256 0.04122468 -0.034224402 0.029004022
0003e0 a9 b1 d0 bb 75 db 3b bd 07 f6 7a 3d d3 9a 91 3d
       -0.006368835 -0.045863587 0.061269786 0.071096085
0003f0 c3 59 87 3d a7 33 4e 3d ee 7a 92 bc d8 e1 05 bd
       0.066089176 0.05034223 -0.017880883 -0.032686085

mlp2.2.bias f4 [50]
000000 87 ba a7 3d 7b 79 8d bd a9 c7 85 3d eb cc 4d bd
       0.08189874 -0.06907936 0.06532223 -0.050244253
000010 48 87 af 3c 7b 60 00 bd 15 d8 8e 3d f6 f4 b1 bd
       0.021426812 -0.03134201 0.06974808 -0.08689301
000020 1b dd 2c 3d 9a 1f 7a bd 68 30 18 bd 4f e5 b5 bd
       0.04220305 -0.061065294 -0.03715554 -0.08881628
000030 b8 c4 3c bd d1 2d b6 3d 25 cf 06 bd 51 9e b9 bb
       -0.046086043 0.088954575 -0.032912392 -0.0056646247
000040 2c 00 c2 3d a9 ad 00 bd 88 ce 2a bd f0 c7 68 3d
       0.09472689 -0.031415615 -0.04170087 0.0568313
000050 c7 c3 a0 bd 5d 15 e1 3d bf 89 be 3d 67 55 a5 3d
       -0.078498416 0.10990403 0.09303617 0.0807293
000060 9e a7 8c 3d 55 fb 90 bc 3a 80 ac bd e6 0a 95 3d
       0.06867908 -0.01769797 -0.08422895 0.07277469
000070 a8 ff d7 3c 5e 75 7e 3d 64 f0 1f bd ce 60 19 3c
       0.026367024 0.06212365 -0.039047614 0.009361459
000080 b3 d8 73 bd 43 37 a0 3d 6d f4 9f bd fa 48 9b 3c
       -0.059532832 0.0782304 -0.078102924 0.018955696
000090 f3 8d 6f bd 7e 44 11 3b 34 aa 83 3d 55 d7 cd bd
       -0.058484983 0.0022166069 0.06428948 -0.10050837
0000a0 ea 06 d9 bc bb eb b2 3c dd 14 86 3d 81 1e d3 3d
       -0.026492555 0.02184092 0.06546948 0.103085525
0000b0 b9 fb 12 bc 6d c9 ab 3d 20 4c 3a bd e0 ab f3 3c
       -0.008971148 0.08388028 -0.045482755 0.029745042
0000c0 8e 73 28 bd 51 0e 51 3d
       -0.041125827 0.051039044

attention.0.weight f4 [100, 200]
000000 9f 97 90 3d 70 47 e3 3c 68 23 21 bb d0 ba 44 3a
       0.070601694 0.027744025 -0.0024587754 0.0007504644
000010 7e 4b 19 3d 5b 61 9e 3c 3a 11 8f bb 6b a4 db bb
       0.03742551 0.019333532 -0.0043660672 -0.0067029498
000020 cd 2c 5b 3d 52 16 17 3d fc 46 46 bd b0 f3 60 3d
       0.053509522 0.03688652 -0.04840754 0.0549199
000030 ab 95 80 3d f4 3e 7e 3d ce 73 75 bb 7a 7d 73 3d
       0.06278547 0.062071756 -0.0037453058 0.059445836
000040 76 ca 83 bd 1b 54 6c bd 47 54 74 3c 76 da 4d bd
       -0.06435101 -0.057697397 0.014912671 -0.05025717
000050 0c bc 61 bd 2a 81 15 bd 1e 5e 0c 3d 7a c7 2a bd
       -0.055110976 -0.036500134 0.034269445 -0.041694142
000060 5d 13 55 bd 33 fb 84 3d b3 ca 27 b7 0b 02 86 3d
       -0.05202042 0.06493225 -1.000117e-05 0.065433584
000070 2b b3 0e bb 4d ee 31 3c 74 ac 58 bd 8a a2 4c bd
       -0.0021774273 0.010860038 -0.05289884 -0.049959697
000080 9d c7 1f bd a9 5a 37 3d 64 ae 2f 3d f8 cc c0 bc
       -0.039008725 0.044764195 0.04289092 -0.023535237
000090 68 6d 34 3d 39 aa 7e 3d ba 86 25 bc d4 48 a9 bc
       0.04404965 0.062174056 -0.010102922 -0.02066461
0000a0 9d ca eb bb 97 ea 8c bd 2b c1 cc 3c 78 6c 88 bd
       -0.0071957842 -0.06880682 0.024994453 -0.06661314
0000b0 7e 9f 61 bd 1e ea 70 3d 9d 71 e4 3c 4a b4 3d bc
       -0.055083744 0.05881702 0.027886206 -0.011578629
0000c0 5c 71 80 3d 68 fe 03 3d 88 79 53 3d df 9c 8e bd
       0.062716216 0.032225043 0.051629573 -0.069635145
0000d0 a9 dc ac 3c 89 52 5f 3d d8 4b 0d bb e7 5b a9 3c
       0.021101313 0.05452207 -0.00215601 0.020673705
0000e0 bd 6c 19 3c c6 0a 5d 3d 74 5d 57 3d db f8 56 bd
       0.009364304 0.053965352 0.05257936 -0.05248342
0000f0 74 c0 84 bd 10 78 49 bd da 35 44 3d d5 08 68 bd
       -0.0648202 -0.049186766 0.04790292 -0.056649048
000100 65 45 0c bb 9d 74 b0 bb e6 7f d4 bc bc fd 88 3d
       -0.0021403667 -0.005384995 -0.025939893 0.06689021
000110 dd c1 52 3d 6d ce ba bc a6 1f 48 bd 1b 18 9c bc
       0.051454414 -0.02280351 -0.048858307 -0.019054463
000120 72 a5 ae bc 04 61 cc 3b e9 a5 cf bc 52 88 47 3d
       -0.021319125 0.006237151 -0.025347667 0.04871399
000130 62 88 35 3c 65 9f ba 3c 52 d8 4e bd 58 7f 38 bc
       0.0110798795 0.022781083 -0.050499268 -0.01126083
000140 e9 a8 e6 3b c4 7d 3c bd c7 38 61 bd 83 8b bb bc
       0.0070391786 -0.046018377 -0.054985788 -0.022893673
000150 f7 73 8d 3d 49 1d 89 bd ec 3f 03 3d c2 c9 85 3d
       0.06906884 -0.06695039 0.032043383 0.06532623
000160 1c ef 64 3d 1e 56 79 bd f7 3c 88 bd 0e 25 86 bd
       0.055892095 -0.060873143 -0.06652253 -0.06550036
000170 21 8e 43 bd 63 11 33 bc 1b 6a 90 bd 81 4b 7b bd
       -0.047742967 -0.010929438 -0.07051488 -0.061351303
000180 a1 e0 80 bd 22 ac 41 3d db e5 05 3d de 24 e8 ba
       -0.062928446 0.0472833 0.03268991 -0.0017711183
000190 53 74 ac 3c 90 86 44 3d 61 c7 22 bd 54 5f 5c 3d
       0.021051561 0.04797989 -0.039740924 0.05380185
0001a0 d7 b7 2f 3c 47 83 95 3c fc 21 1c bc 1d 52 80 bd
       0.010724983 0.018251074 -0.009529587 -0.06265662
0001b0 da 04 27 bd 49 3c a5 bc ea 46 b0 bb 51 25 5a 3d
       -0.04077611 -0.020170348 -0.0053795474 0.053258244
0001c0 71 1e 60 bd ad 11 b2 3c 53 e6 ce bc 91 ba 1e bd
       -0.05471653 0.021736944 -0.025256312 -0.038752142
0001d0 9f 32 81 3d a2 d6 10 39 b6 2c 84 bd 77 d7 41 bc
       0.06308483 0.00013812867 -0.064538404 -0.011831156
0001e0 5a 31 57 bd 1b ae 44 bd 60 c5 d3 bc df 9e 68 ba
       -0.0525373 -0.048017602 -0.025850952 -0.00088737713
0001f0 3c 89 0c bd cd e9 05 bd 4e a2 7b 3c d8 c4 5c 3c
       -0.034310564 -0.032693673 0.015358521 0.013474666
000200 26 9d 8f bd d1 56 14 3d 32 24 d0 bc 8b 43 8f bd
       -0.070123956 0.036215607 -0.025407884 -0.06995305
000210 10 4f e0 bc de 13 50 bd f3 f6 1d bd d5 fc f6 bc
       -0.02738145 -0.050800197 -0.038565587 -0.030149857
000220 a2 7c aa bc 15 9c 2f bd ed e0 18 bd 20 6a f5 bb
       -0.020811383 -0.04287346 -0.03732388 -0.0074894577
000230 ab 8f 7f 3d 5b 57 87 bd b2 1c 3f bd 1d 88 a0 3c
       0.06239287 -0.066084586 -0.046658225 0.019596154
000240 30 9c b0 bb a4 c8 bc bc 8f 9e 00 3d 93 86 89 bd
       -0.0053897128 -0.023044892 0.031401213 -0.06715121
000250 11 4d 02 bd 6f f3 9e 3c 00 ba 22 3c f5 ad 8e bd
       -0.031811778 0.019403188 0.009932041 -0.069667734
000260 46 c5 77 bd a8 0d 90 3d 09 02 be 3c e9 3d 81 3d
       -0.06049087 0.07033855 0.02319433 0.063106366
000270 ad 74 3c bc 11 ed a2 bc c6 6e 7a 3d 59 b6 c6 3c
       -0.011502427 -0.019888433 0.061140798 0.024256872
000280 bd 04 8c bc 48 e6 75 3d db 8a 18 3d ff 48 9f bc
       -0.017092103 0.060034066 0.037241798 -0.019443987
000290 2b 92 87 3c e0 ea 60 3d 36 4e bc bc f9 c3 29 bb
       0.01654919 0.054911494 -0.022986513 -0.0025904162
0002a0 a5 85 1a 3c e5 52 6d 3d ae cb 0c 3c 66 ef 63 3d
       0.009431277 0.057940383 0.008593483 0.05564823
0002b0 e0 28 76 bd 18 94 66 bd 47 8a 21 bd ad 1b ad 3c
       -0.060097575 -0.056293577 -0.039438512 0.02113136
0002c0 18 3b 83 bd 94 08 0c 3b 7c 46 86 bd 28 cf 10 3c
       -0.064077556 0.0021367418 -0.065564126 0.008838452
0002d0 aa c0 81 bd 00 1e 60 3d 57 a8 8b 3d 96 c0 00 3d
       -0.06335576 0.05471611 0.06819218 0.031433664
0002e0 b7 a3 01 3d 88 6e 60 bc 41 38 8c 3d 2b 7d 85 3d
       0.03165027 -0.013698228 0.06846667 0.065180145
0002f0 0c 49 81 3d 2b b9 27 3d 3f 86 84 3d 8a 2f dc bc
       0.06312761 0.040948074 0.06470918 -0.026878137
000300 68 66 52 bd 92 bf ca 3c b3 1b 8f 3d 30 fe 04 bd
       -0.051367193 0.024749551 0.06987705 -0.032468975
000310 e4 3c 17 3d 4c dc 0d bc 43 b1 31 3b a1 fe b8 3b
       0.036923304 -0.00865848 0.0027113713 0.0056455885
000320 33 59 06 bd 02 5e ae bc 36 97 0d 3d 72 67 e0 bc
       -0.03279991 -0.02128506 0.034568034 -0.027393077
000330 34 6f 6b bc 50 1a e3 3b 7c 50 da bc 5b 35 89 3d
       -0.014369775 0.006930627 -0.026649706 0.0669963
000340 cc 46 18 bc 98 71 39 bd 6e 3f 3e bd 5c 2a ea bc
       -0.009294223 -0.045274347 -0.04644721 -0.028584652
000350 f0 09 ea 3c 72 7a 4e 3d ba d8 65 3d ee 56 1f 3d
       0.028569192 0.05040974 0.05611489 0.038901262
000360 9a 82 20 3d c8 f7 9e bc 78 be ba 3c f0 bd ac 3c
       0.03918705 -0.01940526 0.0227959 0.021086663
000370 2d 2a 66 bd 2a 1d 67 3d 34 31 8c bd 20 ea 1c 3b
       -0.056192566 0.056424297 -0.06845322 0.002394326
000380 6d 4a 85 3d 10 67 f9 bb 28 ba 7a 3c 9a 27 71 3d
       0.06508336 -0.007611163 0.015303172 0.058875658
000390 46 57 82 bd c4 59 80 3c fe 39 1a 3d 66 c3 5d bd
       -0.06364302 0.015667804 0.037652962 -0.054141425
0003a0 56 7e 28 bd 80 91 96 bb b8 aa 27 3c 10 cc 3b bd
       -0.04113611 -0.0045949817 0.010233574 -0.045848906
0003b0 ad e9 76 bd 7e b3 64 3d f8 60 12 3d 5c c9 1e 3d
       -0.060281444 0.05583524 0.035737008 0.03876625
0003c0 4e da 89 bd 68 86 87 3c 78 f0 5a 3c 70 96 30 3d
       -0.067310914 0.016543582 0.013362996 0.04311222
0003d0 2a 51 fe bc 39 d3 88 bd 68 d5 c0 bc ec 00 90 bc
       -0.031044561 -0.066809125 -0.02353926 -0.017578565
0003e0 5e 5f 12 bd ec ac 96 bc 74 0b 54 bc 3a 55 37 bd
       -0.03573548 -0.018393002 -0.012942184 -0.044759013
0003f0 7b 43 1e bd 80 28 6a 3a 10 4b 15 3c c0 58 ce 3b
       -0.038638573 0.00089324266 0.009112135 0.006297201

attention.0.bias f4 [100]
000000 e1 c0 81 3d 30 f8 30 bc 73 ce 31 3d 3c 34 17 3c
       0.06335617 -0.01080136 0.043409776 0.009228762
000010 20 32 8e bd 71 26 82 bd 97 0f b9 3b be 64 90 bd
       -0.06943154 -0.06354988 0.0056476104 -0.07050465
000020 67 3d b1 bc 54 dd 7e bd 78 ba 9f bc 44 a1 e5 3c
       -0.021635724 -0.062222794 -0.019498095 0.028030999
000030 c3 54 9f bc 9f 9d d1 3c e0 86 92 3c d9 17 41 bd
       -0.019449597 0.025587855 0.017886579 -0.047141884
000040 b4 5b 39 3d 2a 87 8b bd 53 94 21 bd 85 b6 84 3d
       0.04525347 -0.0681289 -0.039448094 0.06480125
000050 72 81 90 bd b4 fe 38 3c 53 56 e7 bc 1f d0 67 3d
       -0.0705594 0.011291195 -0.028239405 0.056594964
000060 3f b6 09 bd a7 39 4c bd 4a 77 73 3d 84 c1 0c 3c
       -0.03362107 -0.04985967 0.059439935 0.00859106
000070 5d 97 f0 bc 6b b6 7a bd 8a 0e 62 bd 42 cc 72 bd
       -0.02936905 -0.061209124 -0.055189647 -0.059276827
000080 e8 af 41 3d 81 fc d2 bc 07 b8 02 bd a0 7e 8f 3c
       0.047286898 -0.025755169 -0.031913783 0.017516434
000090 30 cb 66 3c 38 74 6d bc b7 5f 96 3c b1 25 6c bd
       0.01408653 -0.014493041 0.018356187 -0.057653133
0000a0 78 ba 21 39 c2 a4 88 bd 2e 43 00 bd ce 69 3e bd
       0.00015423622 -0.0667205 -0.031314068 -0.046487622
0000b0 02 ed a6 3c 07 51 3b bc d5 a8 3d b8 13 e9 89 3d
       0.020376686 -0.011432893 -4.521835e-05 0.067339085
0000c0 cb 71 86 bc 20 b7 3c bd e9 d8 f7 bc 17 b2 0c bd
       -0.016411683 -0.04607308 -0.030254798 -0.034349527
0000d0 5d b8 7f bb 66 48 95 3c 1e f4 b6 ba f6 12 45 bd
       -0.0039019801 0.018222999 -0.0013958251 -0.048113786
0000e0 5f 3d 0c 3b 65 87 a6 bc 35 43 03 3d fe 62 81 bd
       0.0021398885 -0.020328233 0.032046515 -0.063177094
0000f0 a8 06 85 bd 6e b4 93 3c 32 de 65 3c 1f 26 db bc
       -0.0649541 0.018030372 0.014030026 -0.026751576
000100 dd 29 63 bd a0 e9 81 bd e5 41 9f bc 35 7a 5a bc
       -0.055459846 -0.063433886 -0.0194406 -0.0133348005
000110 be 84 ac 3c 63 53 73 3b 4e 00 e2 bb c5 9c 4b bd
       0.02105939 0.003712856 -0.006897009 -0.049710054
000120 9f 6f fc bc a0 0c 31 3d 55 5c 71 3d 69 2f 90 3d
       -0.030814944 0.04322493 0.058925945 0.07040293
000130 21 aa 48 bd 40 88 47 bd f9 2e 3a 3d 93 0a 08 3d
       -0.048990373 -0.048713923 0.045454953 0.03321321
000140 10 84 69 3c 77 47 92 3c db ab 1a bd f6 47 84 bc
       0.014252678 0.017856343 -0.03776155 -0.016147595
000150 1b 40 d4 3c 09 d0 85 bd 2c 58 a4 3c 21 1d 51 3c
       0.025909474 -0.0653382 0.020061575 0.0127632925
000160 9b 89 72 bd eb 3f 80 3d a2 43 ca 3c 84 89 a5 3c
       -0.059213262 0.062621914 0.024690453 0.020207174
000170 08 4f 2e bd 66 ed 70 bc 83 9e 8d 3d f9 8c ab 3c
       -0.04255584 -0.014705038 0.06914999 0.020941244
000180 7d dc 1e bd 37 3a a8 bc 3e 13 37 3d dd 09 80 bc
       -0.038784493 -0.020535572 0.044696085 -0.015629703
